ai/voice-control/text/model/TextClassifier_model.pth (torch, 918943 bytes, 14 tensors)

model.0.weight f4 [512, 180]
0	0x3cda51cd	0.026650334
1	0x3c2c325e	0.010510055
2	0xbb84de67	-0.0040548327
3	0x3cf3f752	0.029781017
4	0x3cbed259	0.023293661
5	0xbd25c19a	-0.040467836
6	0x3c245173	0.010029185
7	0x3bc24244	0.0059283096
8	0xbce58856	-0.028019112
9	0x3cfd721b	0.030938199
10	0x3d710173	0.058839273
11	0x3d0dfb09	0.034663234
12	0xbc5299ef	-0.012854083
13	0xbd18862b	-0.037237328
14	0xbc20a59c	-0.009805109
15	0x3b5ef060	0.0034017786
16	0xbd8e725e	-0.069554076
17	0x3db38fc7	0.08767658
18	0xbd5eb3e2	-0.05437077
19	0xbca5c5af	-0.020235864
20	0xbd99cc32	-0.0750965
21	0xbd899da5	-0.067195214
22	0xbc62456e	-0.013810499
23	0xbb7b26b5	-0.0038322632
24	0x3c87146e	0.016489234
25	0x3da0a4c1	0.07843924
26	0xbdab5d1d	-0.08367369
27	0xbc5ff0e5	-0.013668274
28	0xbd134057	-0.03595003
29	0x3cc51c7a	0.02406143
30	0xbc898ca9	-0.016790705
31	0x3c889551	0.016672762
32	0xbd3e0f99	-0.046401594
33	0x3d47a6bc	0.048742995
34	0x3d5848f2	0.05280394
35	0xbaafb164	-0.0013404307
36	0x3b511e61	0.0031908976
37	0xbca78754	-0.020450272
38	0x3c7944d5	0.015214165
39	0xbd8003b1	-0.06250704
40	0xbc9f9ef6	-0.019484978
41	0xbadd23eb	-0.0016871666
42	0xbba6d3fd	-0.005091189
43	0x3cede198	0.029038236
44	0x3d55d9ed	0.052209783
45	0x3cb49362	0.022042934
46	0x3ce3cb10	0.027806789
47	0xbc4c236a	-0.012459615
48	0x3d0e1d09	0.03469566
49	0x3c85901e	0.016304072
50	0xbcdc6d13	-0.02690748
51	0x3d3c375f	0.045951243
52	0x3c3a7764	0.011381004
53	0xbd57ae52	-0.05265648
54	0xbbb528d9	-0.005528551
55	0x3d343ada	0.044001438
56	0xbb875852	-0.0041304016
57	0xbd412a81	-0.047159676
58	0x3da70c00	0.08156586
59	0x3d6e5de8	0.058195025
60	0x3bf522f2	0.0074809724
61	0x3d9dd986	0.07707505
62	0xbdace1ff	-0.08441543
63	0xbc8cee16	-0.017203372
64	0x3d1d762c	0.038442776
65	0x3c8584cd	0.016298676
66	0xbcc3c94c	-0.023899697
67	0xbd39b4bf	-0.04533839
68	0xbd2cc8e2	-0.042183764
69	0x3d4d3d1d	0.05010711
70	0xbd9e96f6	-0.07743637
71	0xbd7baa4b	-0.0614417
72	0x3d82f571	0.063944705
73	0x3d7c0e27	0.061536934
74	0xbc520640	-0.012818873
75	0x3d4aa402	0.049472816
76	0xbc02151e	-0.007939605
77	0x3be7a3f3	0.007069105
78	0xbb5c280f	-0.0033593213
79	0xbcefff2b	-0.029296478
80	0xbd42c1ce	-0.047548108
81	0x3c978276	0.018494826
82	0x3d5c9ce9	0.05386058
83	0xbc07b55f	-0.008282988
84	0x3a9d950a	0.0012022567
85	0x3d0264ec	0.031834528
86	0x3d03e9de	0.032205455
87	0x3d0d5891	0.03450829
88	0xbd0d3b01	-0.0344801
89	0x3d6219df	0.055200454
90	0x3d4b645c	0.049656257
91	0x3d69d10b	0.057084125
92	0xbd978300	-0.07398033
93	0xbcadd5ea	-0.021220166
94	0x3bcbde5c	0.0062215757
95	0x3dc356e4	0.095380574
96	0x3d4b2b20	0.049601674
97	0xbd3f04a7	-0.046635296
98	0xbd902007	-0.07037359
99	0xbd621834	-0.055198863
100	0x3d9b6fbb	0.0758967
101	0x3c824b31	0.015904995
102	0xbd67908b	-0.05653433
103	0xbda007db	-0.07813998
104	0x3dacb96c	0.08433804
105	0xbd29fcf5	-0.041501004
106	0xbc794ab5	-0.015215565
107	0x3d6bee66	0.0576004
108	0xbd07886a	-0.03308908
109	0x3d464078	0.048401326
110	0x3d074a7f	0.03303003
111	0xbce1d481	-0.02756715
112	0xbd16b84d	-0.036796857
113	0x3d7f7fd5	0.06237777
114	0x3db40088	0.08789164
115	0x3cf6156a	0.030039508
116	0xbbf3066c	-0.007416537
117	0x3d5b3405	0.053516407
118	0x3d1d9bd8	0.038478702
119	0x3d942cce	0.07235108
120	0x3c73a484	0.014870767
121	0xbd2897ee	-0.041160516
122	0xbcd38ea7	-0.025824858
123	0x3bfc89ba	0.007706848
124	0x3cf807b4	0.03027711
125	0xbda07795	-0.078353085
126	0x3d3cf7aa	0.04613463
127	0xbccdd8ee	-0.025127854
128	0xbcd6c6fd	-0.026217932
129	0x3c4bfe0a	0.012450704
130	0xbd494f93	-0.049148154
131	0x3db1a65c	0.08674309
132	0x3d3d7a64	0.0462593
133	0xbd6d414b	-0.057923596
134	0x3ca222eb	0.01979204
135	0x3af4f0da	0.0018687502
136	0xbc258f02	-0.0101048965
137	0xbd8483bd	-0.064704396
138	0xbd213ec9	-0.039366517
139	0x3d4f5116	0.05061444
140	0x3c11352a	0.008862773
141	0x3c89c2f8	0.016816601
142	0xbd644005	-0.055725116
143	0xbd6d6ed9	-0.05796704
144	0xbd6a6fae	-0.057235412
145	0xbd84fa92	-0.06493105
146	0x3d101eac	0.0351855
147	0x3d96678f	0.07343971
148	0xbc2acc94	-0.010424752
149	0x3d6e3502	0.05815602
150	0x3c98042f	0.018556682
151	0xbd0635b4	-0.03276606
152	0x3dcb0720	0.09913468
153	0xbd1a73fc	-0.037708268
154	0x3d34c2c0	0.04413104
155	0xbc9c2d76	-0.019064646
156	0xbcf09d4d	-0.029371882
157	0xbd4447b1	-0.047919933
158	0x3d9853d9	0.07437868
159	0x3d8e7c2f	0.0695728
160	0xbd3a53f4	-0.04549022
161	0xbd443f91	-0.047912184
162	0xbdbdccad	-0.092675544
163	0xbd5bb7bd	-0.053642023
164	0x3c718298	0.014740609
165	0xbd944830	-0.07240331
166	0xbcfa4e46	-0.030554902
167	0x3cb46fd5	0.022025982
168	0xbd105822	-0.0352403
169	0x3cc21040	0.02368939
170	0x3d84f488	0.06491953
171	0x3d353e05	0.0442486
172	0xbd8ee0f7	-0.069765024
173	0x3d8e120f	0.06937038
174	0xbd0f4506	-0.034977935
175	0xbd3e2901	-0.046425823
176	0x3d38fc0c	0.045162246
177	0x3d387060	0.045029044
178	0x3da4fed0	0.08056414
179	0xbd5e95f9	-0.054342244
180	0xbd7b3e1e	-0.061338536
181	0xbce9764c	-0.028498791
182	0xbd136a9d	-0.035990346
183	0xbd045731	-0.032309715
184	0x3d9d5e44	0.07683995
185	0xbcfe92fc	-0.031075947
186	0xbd825613	-0.063640736
187	0x3c6374e6	0.013882851
188	0xbc712ffa	-0.014720911
189	0xbd39a5a8	-0.045323998
190	0x3d591d8f	0.053006705
191	0x3c922c89	0.017843502
192	0x3cc8abb1	0.024495931
193	0xbd2a9d67	-0.041654017
194	0xbd78f831	-0.06078357
195	0x3c8035f6	0.01565073
196	0xbc2e2eb1	-0.010631249
197	0xbccaf677	-0.024775727
198	0xbcceaada	-0.025227953
199	0xbcbb8d35	-0.022894481
200	0x3d73cf2d	0.05952375
201	0xbd0c303b	-0.034225684
202	0xbc9c22fe	-0.019059654
203	0xbd2a1c22	-0.041530736
204	0xbc7ac877	-0.015306584
205	0x3d88ec9c	0.06685755
206	0xbd44094d	-0.047860432
207	0x3c7eaf35	0.015544702
208	0x3d4e1b22	0.050318845
209	0xbce0752f	-0.027399627
210	0xbd096fd1	-0.033553902
211	0x3c7e2b4c	0.0155132525
212	0xbcb3937d	-0.021920914
213	0xbdb36c7f	-0.08760928
214	0x3d2342dd	0.039858688
215	0xbd3397ca	-0.04384593
216	0xbd015256	-0.031572662
217	0xbd19ba82	-0.037531383
218	0xbc847dc6	-0.016173255
219	0xbc4f5e35	-0.012656738
220	0xbcf515e1	-0.02991766
221	0xbcf3ff0b	-0.0297847
222	0xbc3fa52d	-0.011697096
223	0xbc910ad8	-0.017705366
224	0x3d03ae19	0.032148454
225	0xba150fa9	-0.00056862325
226	0xbd30474b	-0.04303674
227	0x3d5178ea	0.051140703
228	0xbd4d7e8b	-0.05016951
229	0xbd035091	-0.032059256
230	0xbcad2118	-0.021133944
231	0x3d98e3bf	0.07465314
232	0xbcd2cd92	-0.02573279
233	0xbd5b44ba	-0.05353234
234	0xbd4acbac	-0.049510643
235	0xbc780240	-0.015137255
236	0xbda17519	-0.07883663
237	0x3dae11ca	0.08499487
238	0xbd63b535	-0.055592734
239	0xbcd15e64	-0.025557704
240	0x3d804f8f	0.062651746
241	0x3d4ce170	0.05001968
242	0xbc920905	-0.017826566
243	0x3d8981c2	0.067142025
244	0x3cd677ff	0.026180265
245	0xbcf29eb9	-0.0296167
246	0xbc55a1c1	-0.013039053
247	0x3da3b8f5	0.07994262
248	0x3d279b96	0.040919863
249	0x3d9340a6	0.07190065
250	0x3cf277f5	0.029598216
251	0xbc8ca29c	-0.017167382
252	0x3cd9cd76	0.02658723
253	0x3d13c1ab	0.036073368
254	0x3c97a8e9	0.01851316
255	0x3cdb2a74	0.026753642

model.0.bias f4 [512]
0	0xbd8ff262	-0.07028653
1	0x3d95edea	0.07320769
2	0x3d90e10c	0.07074174
3	0x3d00615d	0.031342853
4	0xbcae27c2	-0.021259192
5	0xbd0db20a	-0.03459362
6	0xbd8beef3	-0.06832685
7	0xbc879545	-0.01655067
8	0x3d2d5bf2	0.042324014
9	0x3aeae012	0.0017919561
10	0xbceb9ecb	-0.028762242
11	0x3c19c5fd	0.009385583
12	0xbd4f5646	-0.050619386
13	0xbd480f56	-0.04884275
14	0x3d1cbf49	0.03826836
15	0x3d543d81	0.051816467
16	0x3d79db4e	0.06100016
17	0x3cae177b	0.02125143
18	0xbd298921	-0.041390542
19	0xbcc14364	-0.023591705
20	0xbcc3b11d	-0.023888165
21	0xbd40eb30	-0.047099292
22	0xbb6017bc	-0.0034193834
23	0x3c4d043d	0.0125132175
24	0x3caa70ec	0.020805798
25	0xbd4dca6d	-0.050241876
26	0xbd6a8a37	-0.05726072
27	0xbd67bb93	-0.05657537
28	0x3c6cd037	0.014453939
29	0x3d7a0b85	0.061046142
30	0xbd52d0f0	-0.05146879
31	0xbd464efa	-0.04841516
32	0x3d8a9982	0.067675605
33	0xbc34628d	-0.011009824
34	0x3c745ced	0.014914733
35	0xbd8ecfce	-0.06973229
36	0x3d370017	0.04467782
37	0xbd1146dc	-0.035467967
38	0x3c1c2a94	0.009531636
39	0xbcfd6dd6	-0.030936163
40	0x3d1bceba	0.038038947
41	0x3d03e9c8	0.032205373
42	0xbc5a22b7	-0.013313941
43	0x3d915bb1	0.07097567
44	0xbbcf3bb3	-0.0063242554
45	0x3d8bceed	0.06826577
46	0x3d8522dc	0.065007895
47	0x3c3223f8	0.010872833
48	0x3d909bc9	0.07060964
49	0xbc9abce6	-0.018888902
50	0x3d3ca69c	0.04605733
51	0x3cd8e326	0.0264755
52	0xbd47264c	-0.048620507
53	0xbd2171ab	-0.039415043
54	0xbd913937	-0.07090991
55	0xb9acc50a	-0.00032953202
56	0x3c6d4735	0.014482309
57	0x3d390968	0.045174986
58	0xbcbdded2	-0.023177538
59	0xbd7e86a8	-0.062140137
60	0x3d57a672	0.05264897
61	0xbd8da298	-0.06915778
62	0x3d29fce5	0.041500945
63	0xbcc29e81	-0.023757221
64	0xbd54cd62	-0.05195368
65	0x3c0bc094	0.008529801
66	0xbd0e6395	-0.034762938
67	0xbd876e23	-0.06612804
68	0xbd16e169	-0.03683606
69	0xbbdbc53c	-0.006706862
70	0x3d82be4d	0.06383953
71	0xbd0a6275	-0.033785302
72	0x3d83ffdb	0.06445285
73	0xbd3c3637	-0.04595014
74	0x3b18cf69	0.0023316985
75	0xbc91d8df	-0.017803608
76	0xbcf5edeb	-0.030020675
77	0xbd3013d4	-0.04298766
78	0x3ce216d3	0.027598774
79	0xbc9cb5d1	-0.019129666
80	0xbd5261d5	-0.05136283
81	0x3b75ae07	0.0037487762
82	0x3ba71710	0.005099185
83	0x3b610411	0.00343347
84	0xbd2fbc1c	-0.042904004
85	0xbd854a2f	-0.0650829
86	0xbca16715	-0.019702474
87	0x3c1e5467	0.009663678
88	0x3d98e9a8	0.074664414
89	0xbc7c09f8	-0.015383236
90	0x3c0e2617	0.0086760735
91	0x3d8c8a95	0.0686237
92	0x3d6fa086	0.058502696
93	0x3ac6f026	0.0015177771
94	0x3ccac387	0.024751438
95	0x3d84b6ac	0.064801544
96	0xbbdd2309	-0.0067485613
97	0xbcb3ba72	-0.02193949
98	0x3d640c68	0.055675894
99	0x3d19fb9f	0.03759348
100	0x3d092689	0.033484016
101	0x3cf69c53	0.030103838
102	0x3d5068a4	0.050881043
103	0x3d5841fe	0.05279731
104	0x3c08f4ce	0.008359147
105	0xbd01f14f	-0.03172427
106	0x3b8ed025	0.004358309
107	0x3ca6834a	0.020326275
108	0x3d63f7f4	0.05565639
109	0x3d86eb78	0.06587881
110	0x3cf4e5e0	0.02989477
111	0x3d052f96	0.032516085
112	0xbb8b7223	-0.0042555495
113	0x3d626354	0.055270508
114	0xbc14ef67	-0.009090281
115	0x3aa64603	0.001268566
116	0xbd24a433	-0.040195655
117	0x3d96e975	0.07368747
118	0xbd8e5b05	-0.06950954
119	0x3d846588	0.06464678
120	0x3d9fd281	0.07803822
121	0xb6ab51f3	-5.1057373e-06
122	0x3d819600	0.06327438
123	0xbce62dd6	-0.028098028
124	0xba87c8ca	-0.0010359522
125	0xbd7c8f3b	-0.061660033
126	0x3d16a4da	0.03677831
127	0x3d15b1ba	0.036546446
128	0xbd7ed5bb	-0.062215548
129	0x3ce810b1	0.028328272
130	0x3d4f4fa3	0.050613057
131	0xbd344540	-0.044011354
132	0x3ce3f8dc	0.027828626
133	0x3d86fe52	0.065914765
134	0xbd6961c9	-0.05697802
135	0xbd7541b7	-0.059877124
136	0xbd486e02	-0.048933037
137	0xbd883ac9	-0.066518374
138	0xbbf2760b	-0.0073993257
139	0x3c2ce006	0.010551458
140	0xbc55405e	-0.013015835
141	0xbd98792c	-0.07444987
142	0x3c799c6a	0.015235046
143	0x3caff290	0.021477968
144	0xbbed2fa2	-0.0072383443
145	0xbd27b481	-0.040943626
146	0x3d834f36	0.06411593
147	0x3d1559d8	0.036462635
148	0x3d887083	0.06662085
149	0xbc6911b5	-0.014225413
150	0xbd96a207	-0.07355123
151	0x3caf4838	0.021396741
152	0xbd1107a5	-0.03540768
153	0xbcaa0d94	-0.020758428
154	0x3d0e88a4	0.03479828
155	0xbd3ab527	-0.045582917
156	0xbd2763ff	-0.040866848
157	0x3d057770	0.032584608
158	0x3d0ffa4e	0.03515082
159	0x3bec7baf	0.0072168927
160	0xbd76acee	-0.060223512
161	0xbd8ae764	-0.067824155
162	0xbd347091	-0.044052664
163	0xbce680df	-0.028137622
164	0xbb29e4f4	-0.002592382
165	0x3c91e5f0	0.017809838
166	0x3d0b535f	0.034015056
167	0xbd85ff4b	-0.06542834
168	0x3d1e2e81	0.03861857
169	0xbd778871	-0.060432855
170	0x3d07887d	0.03308915
171	0xbc73868e	-0.014863623
172	0x3d8e8e21	0.06960703
173	0x3bdfd6f9	0.0068310467
174	0xbd4104b5	-0.04712363
175	0xbd03deb5	-0.03219481
176	0x3aa782bf	0.0012780054
177	0x3d832289	0.064030714
178	0x3d9bb04a	0.07601984
179	0x3d5ff73a	0.054679133
180	0xbd61b29b	-0.055101972
181	0xbd142d87	-0.03617623
182	0xbb10cb2c	-0.0022093756
183	0x3cf3c668	0.029757693
184	0x3c1a1585	0.009404545
185	0xbc3e3cf8	-0.011611216
186	0x3d0f2091	0.034943167
187	0x3d7a5300	0.06111431
188	0x3d391fb7	0.04519626
189	0x3d754b58	0.059886307
190	0xbd0925a6	-0.03348317
191	0xbd55a461	-0.052158717
192	0x3c92c96c	0.017918311
193	0x3cefaf55	0.02925841
194	0x3d046502	0.03232289
195	0xbcd6469c	-0.026156716
196	0xba4b6e19	-0.0007760241
197	0xbd272fac	-0.040816948
198	0x3d900bba	0.07033487
199	0x3cd3ca05	0.025853166
200	0xbd073904	-0.03301336
201	0xbbad0d36	-0.005281116
202	0x3c86170c	0.016368411
203	0x3d992bca	0.07479055
204	0x3d3d0b07	0.046153095
205	0xbc34ee4a	-0.011043141
206	0x3c824733	0.015903091
207	0xbc9b7354	-0.018975891
208	0xbd8731e4	-0.06601313
209	0x3d6877d8	0.056754917
210	0xbd5ca292	-0.053865977
211	0xbd18f40e	-0.037342124
212	0x3d00c713	0.031439852
213	0x3d5dd38b	0.05415682
214	0x3d963d20	0.073358774
215	0x3c83a11d	0.016068036
216	0xbd8b99b0	-0.06816423
217	0x3cc8607e	0.024460074
218	0xbce612bc	-0.028085105
219	0x3d229a48	0.039697915
220	0x3d87a785	0.06623749
221	0xb9830abe	-0.0002499427
222	0x3d6d982e	0.058006458
223	0x3d8b26b3	0.06794491
224	0xbcd72d12	-0.026266608
225	0xbd1e668d	-0.03867202
226	0xbc9d0d8a	-0.019171495
227	0xbcd7e59b	-0.026354602
228	0x3d4d99a9	0.05019537
229	0x3d19b2e6	0.037524126
230	0x3d511386	0.05104401
231	0x3d0f41b6	0.034974776
232	0x3ce148c9	0.027500527
233	0xbd59ff7b	-0.05322216
234	0xbd10914d	-0.03529482
235	0x3cd38572	0.025820468
236	0x3ccb716d	0.024834359
237	0xbb4c4d14	-0.0031173872
238	0x3d19c7e4	0.037544146
239	0xbbcac856	-0.0061884327
240	0x3d50c286	0.050966762
241	0xbd6a450e	-0.057194762
242	0xbd2eeb18	-0.04270467
243	0xbd93d174	-0.072176844
244	0x3cb16d85	0.021658668
245	0x3d8757bc	0.06608531
246	0xbd1f8a74	-0.0389504
247	0x3cb2effe	0.021842953
248	0x3add1fc3	0.0016870428
249	0xbc907728	-0.017634943
250	0x3d48be5e	0.049009673
251	0x3d8fc34e	0.07019673
252	0xbd288774	-0.041144803
253	0x3cb8e28d	0.022568965
254	0x3d87fb49	0.06639726
255	0x3cc02daf	0.023459284

model.1.weight f4 [512]
0	0x3f840f05	1.0317084
1	0x3f841cac	1.032125
2	0x3f80df4f	1.0068148
3	0x3f8131c4	1.0093312
4	0x3f801ab9	1.0008155
5	0x3f78e936	0.9723085
6	0x3f8387d2	1.0275824
7	0x3f7f33ed	0.9968861
8	0x3f826c35	1.0189272
9	0x3f7afc6e	0.9804143
10	0x3f82046c	1.01576
11	0x3f7da143	0.9907419
12	0x3f829199	1.0200683
13	0x3f7b6da9	0.98214203
14	0x3f7d86e4	0.9903395
15	0x3f7cd2bc	0.98759055
16	0x3f813aac	1.009603
17	0x3f7caf15	0.98704654
18	0x3f7e2eb0	0.9928999
19	0x3f81453c	1.0099254
20	0x3f772a42	0.96548855
21	0x3f79b06c	0.97534823
22	0x3f7e59c0	0.993557
23	0x3f7d5f44	0.9897349
24	0x3f8207b2	1.0158598
25	0x3f7a9a50	0.9789171
26	0x3f7cb39e	0.98711574
27	0x3f823f07	1.0175484
28	0x3f7a59a1	0.9779301
29	0x3f7a210b	0.9770667
30	0x3f7f6e12	0.9977733
31	0x3f7cd4b6	0.9876207
32	0x3f7d6134	0.98976445
33	0x3f7c3d4b	0.98531026
34	0x3f7ccdde	0.9875163
35	0x3f81670a	1.010957
36	0x3f7db732	0.9910766
37	0x3f7d43f5	0.9893182
38	0x3f805346	1.0025413
39	0x3f80ec46	1.0072105
40	0x3f7e9b47	0.99455684
41	0x3f7ab0fd	0.9792631
42	0x3f8315a2	1.0240977
43	0x3f7f54b0	0.997386
44	0x3f80cad5	1.00619
45	0x3f7e0419	0.99225
46	0x3f790f54	0.97289014
47	0x3f7f3372	0.99687874
48	0x3f7adc11	0.97992045
49	0x3f8107fa	1.0080559
50	0x3f7a5e0d	0.9779976
51	0x3f816976	1.0110309
52	0x3f7d7a91	0.99015146
53	0x3f7ddd22	0.99165547
54	0x3f7ffb0f	0.9999246
55	0x3f84f16a	1.0386174
56	0x3f804329	1.0020496
57	0x3f7f1b8f	0.99651426
58	0x3f7834cb	0.96955556
59	0x3f8095c1	1.0045701
60	0x3f819bf9	1.0125724
61	0x3f8218cf	1.0163821
62	0x3f7ea8e7	0.99476475
63	0x3f7a9b7b	0.97893494
64	0x3f8292cc	1.0201049
65	0x3f82a3b7	1.0206212
66	0x3f816296	1.0108211
67	0x3f820cef	1.0160197
68	0x3f80847a	1.0040429
69	0x3f7b7b38	0.9823489
70	0x3f7ec95f	0.9952602
71	0x3f817b9c	1.0115848
72	0x3f7cb1cf	0.98708814
73	0x3f7e528f	0.99344724
74	0x3f8254fa	1.0182183
75	0x3f7c73b6	0.9861406
76	0x3f8345f5	1.0255724
77	0x3f7e867a	0.99423945
78	0x3f7db769	0.99107987
79	0x3f7bb70d	0.9832619
80	0x3f824b4d	1.017923
81	0x3f7b81cc	0.9824493
82	0x3f809264	1.0044675
83	0x3f7dca67	0.99136966
84	0x3f81c1d3	1.0137275
85	0x3f7e2913	0.99281424
86	0x3f83e60d	1.0304581
87	0x3f8711b5	1.0552279
88	0x3f7ef72e	0.99595916
89	0x3f83cbfa	1.0296624
90	0x3f7502c9	0.95707375
91	0x3f7d4ef7	0.98948616
92	0x3f830819	1.0236846
93	0x3f77142d	0.9651516
94	0x3f81194e	1.0085847
95	0x3f7f3521	0.99690443
96	0x3f81ce86	1.0141151
97	0x3f8323a9	1.0245258
98	0x3f7e9c0e	0.9945687
99	0x3f80dedc	1.0068011
100	0x3f82c468	1.0216188
101	0x3f807f04	1.0038762
102	0x3f87bec3	1.0605091
103	0x3f81908c	1.0122237
104	0x3f82b6da	1.0212052
105	0x3f7f3065	0.9968322
106	0x3f8217c7	1.0163506
107	0x3f812bb7	1.0091466
108	0x3f7dd950	0.9915972
109	0x3f7daa4c	0.9908798
110	0x3f8653f3	1.0494369
111	0x3f824138	1.0176153
112	0x3f7b12ef	0.98075765
113	0x3f7b28ba	0.9810902
114	0x3f834d13	1.0257896
115	0x3f7f7b57	0.99797577
116	0x3f7b21b9	0.9809833
117	0x3f7bc816	0.9835218
118	0x3f7cc25e	0.9873408
119	0x3f7d174e	0.98863685
120	0x3f7d4f23	0.9894888
121	0x3f7975ff	0.9744567
122	0x3f7c46de	0.98545635
123	0x3f8021b3	1.0010284
124	0x3f7f6d9c	0.99776626
125	0x3f7c1adc	0.98478484
126	0x3f85d5ea	1.0455906
127	0x3f7877d2	0.9705783
128	0x3f7e3595	0.9930051
129	0x3f7eef09	0.9958349
130	0x3f828486	1.0196693
131	0x3f822309	1.0166942
132	0x3f77e570	0.9683447
133	0x3f7d9131	0.9904967
134	0x3f843a2c	1.0330253
135	0x3f7efe7e	0.99607074
136	0x3f81ef86	1.0151222
137	0x3f7c4b9c	0.9855287
138	0x3f82e3bb	1.0225748
139	0x3f80d499	1.006488
140	0x3f807e8e	1.0038621
141	0x3f80c973	1.0061477
142	0x3f7a0c18	0.97674704
143	0x3f7ce1d5	0.9878209
144	0x3f80c390	1.0059681
145	0x3f82a69f	1.0207099
146	0x3f85be59	1.0448714
147	0x3f7f6412	0.9976207
148	0x3f804907	1.0022286
149	0x3f7a21c7	0.9770779
150	0x3f77af44	0.9675181
151	0x3f831c6e	1.0243051
152	0x3f7c751f	0.9861621
153	0x3f7d7faf	0.99022955
154	0x3f833eae	1.0253503
155	0x3f824b10	1.0179157
156	0x3f80d2d0	1.0064335
157	0x3f7d2082	0.9887773
158	0x3f7b74ce	0.98225105
159	0x3f7d3526	0.98909223
160	0x3f7ba32f	0.98295873
161	0x3f7f5fd7	0.99755615
162	0x3f786aa0	0.97037697
163	0x3f855b1d	1.041843
164	0x3f8013db	1.000606
165	0x3f8082f8	1.0039968
166	0x3f830de1	1.023861
167	0x3f7f84fe	0.99812305
168	0x3f7c802d	0.9863308
169	0x3f7a4ca5	0.977732
170	0x3f7c409b	0.9853608
171	0x3f836c13	1.0267357
172	0x3f7ca049	0.98682076
173	0x3f816d8a	1.0111554
174	0x3f7ffe9b	0.9999787
175	0x3f7a63d5	0.9780858
176	0x3f78ceb6	0.97190416
177	0x3f7c0ff0	0.9846182
178	0x3f82f8dd	1.0232197
179	0x3f803935	1.0017458
180	0x3f7d83b2	0.99029076
181	0x3f8111bf	1.0083541
182	0x3f79c4cd	0.9756592
183	0x3f791f32	0.97313225
184	0x3f801050	1.0004978
185	0x3f7af854	0.9803517
186	0x3f7d3c30	0.98919964
187	0x3f8425dc	1.0324054
188	0x3f7e0f12	0.99241745
189	0x3f83e663	1.0304683
190	0x3f7ff50f	0.99983305
191	0x3f80723f	1.0034865
192	0x3f82b1df	1.0210532
193	0x3f7eadd9	0.9948402
194	0x3f7cbbc7	0.98724025
195	0x3f84a56f	1.0362986
196	0x3f823595	1.0172602
197	0x3f822fa2	1.0170786
198	0x3f7baa79	0.98306996
199	0x3f817c13	1.011599
200	0x3f7eb52b	0.9949519
201	0x3f77c770	0.9678869
202	0x3f7e1bf2	0.9926139
203	0x3f8181f0	1.0117779
204	0x3f79d0f1	0.97584444
205	0x3f7bc211	0.98342997
206	0x3f8057a6	1.0026748
207	0x3f7bf386	0.9841846
208	0x3f80b258	1.0054426
209	0x3f81a574	1.0128617
210	0x3f83fa3e	1.0310743
211	0x3f7e76cb	0.99400014
212	0x3f771603	0.9651796
213	0x3f8033f1	1.0015851
214	0x3f84a4bf	1.0362777
215	0x3f849882	1.0359042
216	0x3f7fd867	0.9993958
217	0x3f7f38c1	0.99695975
218	0x3f815788	1.0104837
219	0x3f7fe2ca	0.9995543
220	0x3f80bc89	1.0057536
221	0x3f7b127e	0.9807509
222	0x3f81f861	1.0153924
223	0x3f815abb	1.0105814
224	0x3f758466	0.9590515
225	0x3f7e64df	0.9937267
226	0x3f79956e	0.97493637
227	0x3f852229	1.040105
228	0x3f821665	1.0163084
229	0x3f85cd88	1.0453348
230	0x3f814745	1.0099875
231	0x3f82e84d	1.0227143
232	0x3f818e63	1.0121578
233	0x3f7818d7	0.969129
234	0x3f7b2add	0.9811228
235	0x3f7e8d9d	0.99434835
236	0x3f834cae	1.0257776
237	0x3f8113cc	1.0084167
238	0x3f7e0e20	0.99240303
239	0x3f8343de	1.0255086
240	0x3f80e5ce	1.0070131
241	0x3f7f6c75	0.9977487
242	0x3f7df4cf	0.99201673
243	0x3f8093a2	1.0045054
244	0x3f812f03	1.0092472
245	0x3f803af4	1.0017991
246	0x3f8014d5	1.0006357
247	0x3f7d111d	0.9885424
248	0x3f804524	1.00211
249	0x3f78a7a8	0.97130823
250	0x3f8306f6	1.0236499
251	0x3f7e4e8b	0.993386
252	0x3f7c048f	0.98444456
253	0x3f801396	1.0005977
254	0x3f7dddbb	0.9916646
255	0x3f76c712	0.9639751

model.1.bias f4 [512]
0	0x3c6e15df	0.014531582
1	0x3cd50e19	0.026007699
2	0xbb25de33	-0.0025309443
3	0x3b632894	0.0034661638
4	0xbb0fbe90	-0.0021933652
5	0xbd0d0bf4	-0.034435228
6	0x3b4dffa3	0.003143289
7	0xbb853989	-0.0040656966
8	0x3c8ca527	0.017168595
9	0xbc459bfc	-0.012061115
10	0x3bf44cc0	0.0074554384
11	0x3b6b1aa1	0.0035874026
12	0xbbfdefcc	-0.0077495333
13	0xbca142aa	-0.019685108
14	0x3bb778da	0.0055991234
15	0xbc4b0765	-0.0123919
16	0x3c73c133	0.014877605
17	0x3a5941c9	0.0008287696
18	0xbb28f8e2	-0.0025783111
19	0xbb927f6a	-0.0044707553
20	0xbcf27f4b	-0.029601714
21	0xbcbcca0b	-0.02304556
22	0xbcefbdbf	-0.029265283
23	0xbc833842	-0.016018037
24	0x3baeb634	0.005331779
25	0xbc5f8971	-0.013643608
26	0xbc45aca2	-0.012065085
27	0xbad31e67	-0.0016107083
28	0xbc078cf0	-0.008273348
29	0xbce2d110	-0.02768758
30	0xbc47c2f0	-0.012192473
31	0xbc106e9a	-0.008815432
32	0xbc3bd45d	-0.011464206
33	0xbbaea6b0	-0.0053299293
34	0xbc79b481	-0.015240789
35	0xbbbeae44	-0.005819114
36	0xbc608e83	-0.013705852
37	0xbca9802e	-0.020691004
38	0xbaa00d3a	-0.0012210973
39	0x3b15b9cc	0.002284634
40	0xbc62c850	-0.0138417035
41	0xbcb1bbd4	-0.021696009
42	0xbb432c65	-0.00297811
43	0xbc69fd34	-0.01428156
44	0xba1dd30f	-0.0006020525
45	0xbc0e6b47	-0.008692569
46	0xbc71b7e0	-0.014753312
47	0xbae13e07	-0.0017184623
48	0xbc1a7502	-0.009427311
49	0xbb401584	-0.00293097
50	0xbd090562	-0.0334524
51	0x3bd9a605	0.0066421055
52	0xbcfc7008	-0.03081514
53	0x3b5b7443	0.0033486045
54	0x3a55c792	0.00081550435
55	0x3d151919	0.036400888
56	0xbc0074d3	-0.007840353
57	0xbc050b0b	-0.008120309
58	0xbce5bd26	-0.028044295
59	0x3ba761cd	0.0051080943
60	0x3b9cbb52	0.0047830725
61	0xbb4de661	-0.0031417834
62	0xbb9cd513	-0.0047861426
63	0xbcabcb76	-0.020971041
64	0x3cd538fd	0.02602815
65	0x3cfe514b	0.031044623
66	0x3ad01879	0.0015876434
67	0xbc343b6e	-0.011000497
68	0x3be7d6b4	0.007075155
69	0xbc5bb5fe	-0.01341009
70	0xba608a12	-0.0008565496
71	0xb86969e9	-5.5650165e-05
72	0xbcc18501	-0.023622992
73	0xbad63af5	-0.0016344475
74	0x3c77fbf3	0.015135753
75	0xbc4a2789	-0.0123385275
76	0x3c7dd943	0.015493694
77	0x3b01775a	0.0019754977
78	0xbc67958a	-0.014134774
79	0xbc374eae	-0.011188192
80	0xb6b11bd2	-5.27825e-06
81	0xbc7d38e7	-0.015455461
82	0x3cabf857	0.020992441
83	0xbc626f06	-0.013820415
84	0xbb1ab21e	-0.0023604701
85	0xbc8cd96f	-0.017193524
86	0xbb513e3d	-0.0031927966
87	0x3a1f8f27	0.00060867
88	0xbc1c7e0e	-0.009551538
89	0x3bad0b98	0.005280923
90	0xbd23d0aa	-0.03999392
91	0xbbfcf42b	-0.007719537
92	0x3a07af69	0.00051759795
93	0xbcd84050	-0.026397854
94	0xbc6c6c62	-0.014430137
95	0xbbbb8749	-0.0057229144
96	0xba83acb2	-0.0010045974
97	0x3c53290c	0.012888204
98	0xbc849d93	-0.016188418
99	0xbc1157b9	-0.008871012
100	0x3c8d6991	0.017262252
101	0x39a4f1a8	0.00031460566
102	0x3cea86d8	0.028628752
103	0x3c873411	0.01650432
104	0x3b9897af	0.004656754
105	0xba0ce42c	-0.00053745764
106	0x3c473fb2	0.012161182
107	0x3b9d9ac6	0.00480971
108	0xbc95fb45	-0.018308291
109	0xbbd0efd0	-0.006376244
110	0x3cfd1960	0.030895889
111	0x3c0d9229	0.008640804
112	0xbcaf7d01	-0.021421911
113	0xbd2d352e	-0.042287044
114	0x3b60448b	0.0034220542
115	0xbc2b1685	-0.010442381
116	0xbbf35002	-0.007425309
117	0xbc0c94e2	-0.008580418
118	0xbc1a9e6f	-0.009437188
119	0xbc00a225	-0.007851158
120	0xba76307b	-0.00093913794
121	0xbca32381	-0.01991439
122	0xbbd3c506	-0.006462696
123	0xbae591d5	-0.0017514775
124	0xbb65c7ca	-0.003506171
125	0xbc8fbaa5	-0.017545054
126	0x3d2d54a0	0.042317033
127	0xbcf737ba	-0.03017794
128	0xbb80410e	-0.003914005
129	0xbca89118	-0.020576999
130	0x3b92a2ec	0.004474988
131	0xbc9f113a	-0.019417394
132	0xbcd00e12	-0.025397334
133	0xbc5d0f24	-0.013492379
134	0x3cf1e84d	0.029529715
135	0x3befa992	0.0073139155
136	0x3c6f407f	0.014602779
137	0x3b28f6cd	0.002578187
138	0xbbf2a387	-0.007404748
139	0x3b9224b7	0.004459943
140	0xbc0e0566	-0.008668279
141	0x3c54b7cb	0.012983273
142	0xbcc2dba9	-0.023786383
143	0xbac20f1d	-0.001480553
144	0x3c3ac7d2	0.01140018
145	0xbc5017f8	-0.012701027
146	0xbbbeb371	-0.005819731
147	0xbcd4bf09	-0.025969999
148	0xbb95b46a	-0.004568626
149	0xbcd1d87a	-0.02561592
150	0xbc96f74a	-0.018428463
151	0x3ca510e8	0.020149663
152	0xbc152c9a	-0.009104872
153	0xbc6e3506	-0.014539009
154	0x3cd04efd	0.02542829
155	0x3c3c36a3	0.011487636
156	0xbb0831ee	-0.0020781714
157	0xbb1550f7	-0.0022783855
158	0xbcb37ddf	-0.021910606
159	0xbc926ad3	-0.017873203
160	0xbc1c74f3	-0.009549367
161	0x3b02184d	0.001985091
162	0xbcb2b751	-0.021815928
163	0x3c944006	0.018096935
164	0x3b7aa226	0.003824362
165	0x3c0821c3	0.008308831
166	0xbb097b9b	-0.0020978216
167	0xbbb3d45b	-0.005487961
168	0x3ba343f2	0.004982465
169	0xbca7bda2	-0.020476166
170	0xbcd6fbb7	-0.026243074
171	0x3c170a65	0.009218787
172	0xbc8b8d39	-0.017035114
173	0xbba1502d	-0.004922888
174	0xbb23a392	-0.0024969322
175	0xbcacc4e2	-0.021089975
176	0xbcfc51c9	-0.030800717
177	0xbc82e042	-0.015976075
178	0x3c7af052	0.015316086
179	0x3c5410a7	0.012943423
180	0xbc41d8b2	-0.011831449
181	0xbb335744	-0.0027365247
182	0xbc4aa21a	-0.01236775
183	0xbcdf5424	-0.027261801
184	0x3b93958c	0.0045039114
185	0xbc352daf	-0.011058255
186	0xbbe8465e	-0.0070884665
187	0x3cbc9370	0.023019522
188	0xbbd67152	-0.0065442706
189	0x3cf3f01e	0.029777583
190	0x3a989336	0.0011640552
191	0x3b23743f	0.0024941114
192	0x3a4e7314	0.00078754243
193	0xbb975c9b	-0.0046191937
194	0xbc73ed79	-0.014888161
195	0x3c0747c1	0.008256854
196	0x3c37656b	0.0111936135
197	0x3cb18ea3	0.02167446
198	0xbca18895	-0.019718448
199	0xbab69ef8	-0.0013932874
200	0x3b80789e	0.0039206287
201	0xbcc9d74a	-0.02463879
202	0xbca8c855	-0.020603338
203	0x3b5fd072	0.0034151343
204	0xbbe1e49e	-0.0068937084
205	0xbc539893	-0.0129147945
206	0x3bc327c6	0.005955669
207	0xbc79804e	-0.015228344
208	0x3c2ee542	0.0106747765
209	0xbb4b21ea	-0.0030995556
210	0x3ccd1a38	0.025036916
211	0x3b91fce9	0.004455198
212	0xbcb1f62a	-0.021723825
213	0x3bc8a58e	0.0061232513
214	0x3c037482	0.008023383
215	0x3b31a0f7	0.0027104
216	0xbbbe434e	-0.005806363
217	0xbc1bdd20	-0.0095131695
218	0xb7937513	-1.7578282e-05
219	0xb8300609	-4.196729e-05
220	0x3aee46be	0.0018179042
221	0xbcff4b4a	-0.03116383
222	0x3c458850	0.012056425
223	0xbb23cec6	-0.0024995073
224	0xbceb7040	-0.028740048
225	0xbaf3de09	-0.00186056
226	0xbcb0d17c	-0.021584265
227	0x3cc2f2f8	0.023797497
228	0x3cba2b60	0.022725761
229	0x3cda6afd	0.026662344
230	0x3ba1e822	0.0049410025
231	0x3bc23fed	0.0059280307
232	0x3be36461	0.0069394563
233	0xbce77d26	-0.028257918
234	0xbcf98a03	-0.030461317
235	0xbc30f8fd	-0.010801551
236	0x3cd02fed	0.025413478
237	0xbb6b5323	-0.0035907708
238	0xbbf9afeb	-0.007619848
239	0x3d2c328a	0.042040385
240	0x3a3f66a3	0.0007301366
241	0x3b89ae0f	0.0042016576
242	0xbcbeec12	-0.023305926
243	0xbc1e34f7	-0.0096561825
244	0xbc8573e2	-0.016290609
245	0xb9d09916	-0.0003978691
246	0x3a853262	0.001016211
247	0xbc7d84ab	-0.015473525
248	0xbc5e5a10	-0.013571277
249	0xbcac8aad	-0.02106222
250	0x3b17c4ab	0.0023157995
251	0xbc31f166	-0.0108607765
252	0xbc4a9aee	-0.01236604
253	0xbcb202ec	-0.021729909
254	0xbb81c4b1	-0.003960215
255	0xbd32900e	-0.043594413

model.1.running_mean f4 [512]
0	0xbd8d801a	-0.06909199
1	0x3d83a2e4	0.06427553
2	0x3db6463d	0.08900116
3	0x3d365e9f	0.04452383
4	0x3b4df676	0.003142742
5	0xbd044759	-0.032294605
6	0xbd7e625a	-0.062105514
7	0xba9a04ec	-0.0011750734
8	0x3d4efa12	0.050531454
9	0x3b2a27b1	0.00259636
10	0xbcdc2e5a	-0.02687757
11	0x3ca87f0b	0.020568391
12	0xbccd05e1	-0.025027217
13	0xbd7fe44a	-0.062473573
14	0x3d4029ef	0.04691499
15	0x3d829bb2	0.06377353
16	0x3d707355	0.05870374
17	0x3d3c560b	0.045980494
18	0xbd6f4d80	-0.05842352
19	0xbcc94a05	-0.024571428
20	0xbc548842	-0.0129719395
21	0xbd5659b0	-0.052331626
22	0x3c5d02ac	0.013489407
23	0x3c9c8198	0.019104764
24	0x3d03e351	0.032199208
25	0xbd98292e	-0.074297294
26	0xbd57d051	-0.0526889
27	0xbd21c0e1	-0.039490584
28	0x3cd003cb	0.025392434
29	0x3d9a15b9	0.075236745
30	0xbd1ad1c7	-0.037797716
31	0xbd533846	-0.05156734
32	0x3da13acc	0.07872543
33	0xbc008320	-0.007843763
34	0x3aafbbd3	0.0013407416
35	0xbd76a762	-0.060218222
36	0x3d5cd5fa	0.053915
37	0xbc9f4351	-0.019441279
38	0x3beb5280	0.0071814656
39	0xbc868d51	-0.016424807
40	0x3d53f107	0.051743533
41	0x3d03cd56	0.032178245
42	0xbb917956	-0.004439513
43	0x3d94fd78	0.07274908
44	0xbcbaf995	-0.022824088
45	0x3d7762b6	0.060396872
46	0x3d78384c	0.060600564
47	0x3b01f3e9	0.001982922
48	0x3dbbe57f	0.09174632
49	0xbc832cfa	-0.016012657
50	0x3d32f986	0.043694995
51	0x3cdef118	0.027214572
52	0xbcc1167e	-0.023570295
53	0xbd56644e	-0.05234175
54	0xbd87c162	-0.06628682
55	0x3aa65c1a	0.0012692243
56	0x3cd20349	0.025636332
57	0x3d85f93f	0.065416805
58	0xbd39c010	-0.04534918
59	0xbdbc6584	-0.0919905
60	0x3d06de05	0.032926578
61	0xbd78c876	-0.06073805
62	0x3d20ff81	0.039306168
63	0xbcee9083	-0.029121643
64	0xbd417691	-0.047232214
65	0x3d269b65	0.04067554
66	0xbccce59e	-0.025011834
67	0xbd35663d	-0.044286955
68	0xbd6426be	-0.05570101
69	0x3bb9d950	0.0056716576
70	0x3d531dec	0.051542208
71	0xbccd7356	-0.02507941
72	0x3d54e32e	0.051974468
73	0xbd0f34f9	-0.034962628
74	0x3c777a9d	0.015104917
75	0x391dc5be	0.00015046351
76	0xbcd7ea1c	-0.02635675
77	0xbd5b857a	-0.05359409
78	0x3cc10e3d	0.02356636
79	0xbd104a63	-0.03522719
80	0xbcdc2605	-0.026873598
81	0xbc2cdf93	-0.010551351
82	0x3c9834be	0.018579837
83	0x3bd4893a	0.0064860852
84	0xbcef7181	-0.029228928
85	0xbda4b199	-0.080416866
86	0xbc275937	-0.010214142
87	0x3c35eaab	0.0111033125
88	0x3da7c2f5	0.08191482
89	0x394ccaae	0.0001953046
90	0x3b911003	0.0044269576
91	0x3d8ee85a	0.06977911
92	0x3db53eb0	0.08849847
93	0x3c034643	0.008012357
94	0x3d486e01	0.048933033
95	0x3d8b3069	0.06796343
96	0xbc52397e	-0.01283109
97	0xbc37ddab	-0.011222283
98	0x3d806da7	0.062709145
99	0x3d497066	0.049179457
100	0x3cc24181	0.023712875
101	0x3d193797	0.03740653
102	0x3d8e6ddc	0.06954548
103	0x3d5b87f4	0.053596452
104	0x3c72ff35	0.014831354
105	0xbce486b9	-0.027896272
106	0xbc3f5a12	-0.011679189
107	0x3d095da6	0.033536576
108	0x3d7ed98f	0.0622192
109	0x3d9ef655	0.07761828
110	0x3d06dfca	0.032928266
111	0x3d1dad5a	0.0384954
112	0x3a061fe0	0.0005116444
113	0x3d68a077	0.056793656
114	0xbb0c968d	-0.002145204
115	0x3c0199b7	0.007910184
116	0xbd63afb6	-0.055587493
117	0x3d8af4cd	0.06784973
118	0xbd8cfad8	-0.06883782
119	0x3d94a43f	0.0725789
120	0x3d832f17	0.06405466
121	0x3bd632d0	0.006536819
122	0x3d89e6fc	0.0673351
123	0xbc8e474e	-0.017367985
124	0xbc130b27	-0.008974827
125	0xbd5de2d6	-0.054171406
126	0x3d5bfe75	0.053709466
127	0x3d3f2a04	0.04667093
128	0xbd87a432	-0.06623115
129	0x3cc0431b	0.023469498
130	0x3d6b43f3	0.05743785
131	0xbd6bd83f	-0.057579275
132	0x3d53feca	0.051756658
133	0x3d6e2cb0	0.058148086
134	0xbd9e3759	-0.077254005
135	0xbd4c0f14	-0.049819067
136	0xbd49d68c	-0.049276873
137	0xbdaa25ab	-0.08307966
138	0xbb60df93	-0.0034312948
139	0x3d1f7b6f	0.038936075
140	0xbcc7542c	-0.024332128
141	0xbdab3c0a	-0.08361061
142	0xbbf824cc	-0.007572746
143	0x3bf0637c	0.007336078
144	0xbce468f8	-0.027882084
145	0xbc676f2b	-0.014125626
146	0x3dabb8bd	0.083848454
147	0x3d36b2fa	0.04460428
148	0x3d5fe80c	0.054664657
149	0xbb1075d3	-0.0022042885
150	0xbdc9b0b0	-0.098481536
151	0x3cdc9649	0.02692713
152	0xbc3a8d4c	-0.011386227
153	0xbc1399bc	-0.009008821
154	0x3c83513a	0.016029943
155	0xbd0c5402	-0.034259804
156	0xbd35fd2d	-0.0444309
157	0x3d654e76	0.05598303
158	0x3cdbbfe6	0.026824903
159	0x3d0a3c1e	0.03374874
160	0xbd5199ac	-0.051171944
161	0xbd955996	-0.07292478
162	0xbd1be8d2	-0.03806383
163	0xbc4a39c6	-0.012342876
164	0x3bab1233	0.0052206754
165	0x3c21a670	0.009866342
166	0x3cfd5a79	0.03092693
167	0xbd518b1a	-0.05115805
168	0x3c42d664	0.011891935
169	0xbd8cb907	-0.06871229
170	0x3d686498	0.05673656
171	0xbc83842e	-0.01605424
172	0x3d9801eb	0.07422241
173	0x3c87c9b2	0.016575668
174	0xbd0f11f6	-0.03492924
175	0xbd3868d1	-0.045021836
176	0x3bfa0383	0.007629813
177	0x3d9038f8	0.07042116
178	0x3dace5ed	0.08442292
179	0x3d9d5105	0.07681469
180	0xbd793b7b	-0.06084774
181	0xbd427f5d	-0.047484744
182	0x3be04cae	0.0068450784
183	0x3d037e40	0.032102823
184	0x3c9b4652	0.01895443
185	0xbc8a0e8c	-0.01685264
186	0x3d106bff	0.035259243
187	0x3da5e5e1	0.081004865
188	0x3d5f2d86	0.054486774
189	0x3da56926	0.08076696
190	0xbd0230ec	-0.031784937
191	0xbd874bcb	-0.06606253
192	0x3ccee6a4	0.025256462
193	0x3c9a160a	0.018809337
194	0x3d1cc075	0.03826948
195	0xbcb4788e	-0.022030141
196	0xbcc1299b	-0.02357941
197	0xbd4e7d1c	-0.050412282
198	0x3d8191c9	0.063266344
199	0x3d1fb338	0.038989276
200	0xbd25ff16	-0.040526472
201	0xbafdc774	-0.001936181
202	0x3c880c98	0.016607568
203	0x3dcba679	0.099438615
204	0x3d23bd10	0.039975226
205	0x3c0b6302	0.008507492
206	0x3c311205	0.010807519
207	0xbd23b263	-0.039965045
208	0xbcf79656	-0.030223053
209	0x3d60bd4f	0.05486804
210	0xbd80652b	-0.06269296
211	0xbd051437	-0.03248998
212	0x3c9708b9	0.018436776
213	0x3d0df6d6	0.03465923
214	0x3d94bee1	0.0726297
215	0x3c90c112	0.017670188
216	0xbd9da675	-0.07697765
217	0x3cfea12b	0.03108271
218	0xbc8a74dd	-0.016901428
219	0x3d1bd54d	0.038045216
220	0x3d9a123d	0.0752301
221	0xbc845a82	-0.016156439
222	0x3d7ca810	0.061683714
223	0x3d9ff738	0.07810825
224	0xbbd80e22	-0.0065934816
225	0xbc8b66b3	-0.017016744
226	0x3bf5b018	0.0074977987
227	0xbca78fef	-0.020454375
228	0x3d10d331	0.035357658
229	0x3d235871	0.039879266
230	0x3d4cc1f6	0.049989663
231	0x3d498328	0.049197346
232	0x3cb89460	0.022531688
233	0xbd507175	-0.05088945
234	0xbd1015f9	-0.035177205
235	0x3c85c771	0.016330453
236	0x3ba03944	0.004889639
237	0xbbde22d7	-0.0067790556
238	0x3d7ed203	0.062212
239	0xbc9d145c	-0.019174747
240	0x3d88779c	0.06663439
241	0xbd034887	-0.03205159
242	0xbd0a60b5	-0.033783633
243	0xbdb4cf2d	-0.08828578
244	0x3cc67b9a	0.02422886
245	0x3d82c2a1	0.06384779
246	0xbd4f32f8	-0.050585717
247	0x3bfadd55	0.0076557794
248	0xbbdc5ac6	-0.006724688
249	0xbc2fac94	-0.010722298
250	0x3d19c28a	0.037539043
251	0x3d99025b	0.074711524
252	0xbd2e0d8c	-0.042493388
253	0x3cd1b172	0.025597308
254	0x3d2c9274	0.042131856
255	0x3cba6219	0.022751855

model.1.running_var f4 [512]
0	0x3ac96016	0.0015363719
1	0x3ab49922	0.0013778547
2	0x3ad7339e	0.0016418581
3	0x3b03196f	0.0020004173
4	0x3ad02fa2	0.0015883336
5	0x3afced80	0.0019296855
6	0x3aa0ad88	0.0012258748
7	0x3ad6a331	0.0016375539
8	0x3ad7d672	0.0016467108
9	0x3b0255ba	0.0019887523
10	0x3ac50ac9	0.0015033121
11	0x3b058eea	0.0020379373
12	0x3aa4659e	0.0012542491
13	0x3af6799f	0.0018804556
14	0x3ae5202a	0.0017480899
15	0x3adc4e68	0.0016808035
16	0x3ade1f8a	0.0016946655
17	0x3af4a7f5	0.0018665778
18	0x3b07fbdb	0.0020749483
19	0x3aa292b9	0.0012403346
20	0x3b0285f1	0.001991626
21	0x3adcad98	0.0016836403
22	0x3ac10939	0.001472748
23	0x3adc41eb	0.0016804313
24	0x3ab4ded0	0.0013799313
25	0x3b0b3629	0.0021241999
26	0x3ae30aed	0.0017321982
27	0x3a8d64ee	0.0010787526
28	0x3b1523c1	0.0022756907
29	0x3ae94be9	0.0017799112
30	0x3ad02a8b	0.0015881819
31	0x3ac3afea	0.0014929746
32	0x3ae2e615	0.0017311001
33	0x3b159091	0.0022821764
34	0x3ad8f459	0.0016552313
35	0x3ac1198c	0.0014732345
36	0x3af791a3	0.0018888008
37	0x3ae6e217	0.0017614987
38	0x3ae514b0	0.0017477479
39	0x3af681d8	0.0018807007
40	0x3aa90589	0.0012895326
41	0x3abe4e35	0.0014519157
42	0x3ac88dfc	0.0015301104
43	0x3aeb6b04	0.001796097
44	0x3aded423	0.0017000478
45	0x3ac48afb	0.0014995033
46	0x3af9f3b0	0.0019069817
47	0x3ada9ae5	0.0016678242
48	0x3adfc938	0.0017073518
49	0x3a9acbe3	0.001181003
50	0x3b01d0c8	0.0019808281
51	0x3abf8482	0.0014611634
52	0x3a8824c4	0.0010386934
53	0x3af3359a	0.0018555403
54	0x3b045402	0.0020191674
55	0x3ad144a0	0.0015965886
56	0x3aba81de	0.0014229377
57	0x3aa09196	0.0012250419
58	0x3b183aca	0.00232284
59	0x3af48e4a	0.0018658128
60	0x3ad0c9e1	0.0015929305
61	0x3aa3e6d3	0.0012504704
62	0x3afd168c	0.0019309088
63	0x3b104768	0.0022015218
64	0x3acd0b66	0.0015643656
65	0x3b277c6e	0.0025556344
66	0x3ac97eaa	0.0015372832
67	0x3ac47a8f	0.0014990139
68	0x3afc158c	0.0019232496
69	0x3b01d727	0.0019812079
70	0x3b161bcb	0.002290475
71	0x3ac45781	0.0014979691
72	0x3ada6629	0.0016662526
73	0x3adcf35b	0.0016857194
74	0x3a9cdb37	0.0011967187
75	0x3afd89e5	0.0019343464
76	0x3ae0cb54	0.001715044
77	0x3b0f12ae	0.0021831202
78	0x3ae1465b	0.0017187105
79	0x3b04ef4b	0.0020284231
80	0x3a92cabc	0.0011199336
81	0x3b05c7d3	0.0020413294
82	0x3ad3cb71	0.0016158653
83	0x3af40205	0.0018616325
84	0x3a8ddb9d	0.0010822896
85	0x3af41b2d	0.0018623822
86	0x3a5084df	0.00079543696
87	0x3a88f493	0.0010448865
88	0x3ae6e0bc	0.0017614583
89	0x3a9255cd	0.0011164487
90	0x3b42d684	0.0029729912
91	0x3b02c649	0.0019954613
92	0x3a9720b9	0.0011530138
93	0x3b0f58e5	0.0021873054
94	0x3abafa59	0.0014265283
95	0x3acf46b7	0.0015813921
96	0x3aacc2a0	0.0013180561
97	0x3aadd608	0.0013262639
98	0x3aac7e61	0.0013160222
99	0x3ac5045a	0.0015031204
100	0x3ab29b00	0.0013626516
101	0x3abc22a9	0.0014353591
102	0x3a94ee29	0.0011362481
103	0x3ac47f96	0.0014991637
104	0x3ad8f09e	0.0016551202
105	0x3b0a656f	0.0021117588
106	0x3aeda932	0.0018132089
107	0x3b026efa	0.0019902573
108	0x3ad68152	0.0016365445
109	0x3af149e0	0.0018408857
110	0x3ad7ae78	0.0016455194
111	0x3adae427	0.0016700075
112	0x3b0d1a90	0.0021530725
113	0x3af00a50	0.001831362
114	0x3a8dd357	0.001082043
115	0x3ae0fd5b	0.001716535
116	0x3afc4b2c	0.0019248477
117	0x3b01ae35	0.0019787673
118	0x3b12fa9d	0.002242721
119	0x3aec9318	0.0018049208
120	0x3afff167	0.00195269
121	0x3b023849	0.0019869974
122	0x3ad87167	0.0016513289
123	0x3ac9dc2a	0.0015400697
124	0x3afbf529	0.0019222844
125	0x3adcaa96	0.0016835507
126	0x3adba44b	0.0016757337
127	0x3ae6d608	0.0017611394
128	0x3aeeb5d4	0.0018212148
129	0x3aa58fbd	0.0012631338
130	0x3ab70c1e	0.0013965403
131	0x3ab2cd0c	0.0013641431
132	0x3aeb01b4	0.0017929585
133	0x3afa61b3	0.0019102603
134	0x3aaf18d3	0.0013358839
135	0x3ac64eda	0.0015129701
136	0x3acc180e	0.0015571134
137	0x3b086509	0.0020812175
138	0x3a9dfbfb	0.0012053245
139	0x3aaaa35a	0.0013018653
140	0x3aa9117b	0.0012898886
141	0x3b0aa2d8	0.0021154191
142	0x3b05d1f4	0.0020419331
143	0x3af34c1b	0.001856211
144	0x3afc70cb	0.0019259689
145	0x3abf424e	0.0014591904
146	0x3a852d4e	0.0010160597
147	0x3aa93159	0.0012908384
148	0x3b01b5cb	0.0019792195
149	0x3b0bb0fc	0.0021315208
150	0x3b1263c2	0.0022337292
151	0x3ac55978	0.0015056571
152	0x3aea8ae4	0.0017894176
153	0x3ad9a882	0.0016606005
154	0x3ac9b770	0.0015389752
155	0x3af5932a	0.0018735875
156	0x3a8e10c4	0.0010838737
157	0x3af78bda	0.0018886284
158	0x3ad6b88f	0.0016381907
159	0x3af1cade	0.00184473
160	0x3b211aaa	0.0024582543
161	0x3b2aee34	0.0026081922
162	0x3b03a9e3	0.0020090274
163	0x3a85362d	0.001016324
164	0x3ada7a23	0.001666848
165	0x3afe61d1	0.0019407814
166	0x3ab816b5	0.0014044853
167	0x3ad9f0cc	0.0016627549
168	0x3b339a61	0.002740525
169	0x3ac2234f	0.0014811548
170	0x3af4c10a	0.0018673253
171	0x3b062da3	0.002047398
172	0x3aba5d82	0.0014218541
173	0x3ac428ae	0.0014965737
174	0x3ada0ab5	0.0016635271
175	0x3aec7210	0.0018039364
176	0x3b01cc1b	0.0019805494
177	0x3b02ad42	0.0019939695
178	0x3aaeb83e	0.0013330055
179	0x3b1cd2de	0.0023929398
180	0x3aca6087	0.0015440144
181	0x3ac0c397	0.0014706728
182	0x3b1cf2cf	0.0023948436
183	0x3b0701cb	0.0020600434
184	0x3b12853e	0.002235725
185	0x3af25ebf	0.0018491371
186	0x3ad0a8b3	0.0015919417
187	0x3aa22597	0.0012370822
188	0x3b0f414c	0.0021858988
189	0x3abed198	0.0014558313
190	0x3b07d19f	0.002072431
191	0x3ad4278f	0.0016186106
192	0x3aab4c9d	0.0013069097
193	0x3af86410	0.0018950719
194	0x3aef2f25	0.0018248303
195	0x3aa7fe78	0.0012816926
196	0x3af5d435	0.0018755259
197	0x3af492f7	0.0018659522
198	0x3b1070f9	0.0022039993
199	0x3ae7ad04	0.0017675464
200	0x3af3d35a	0.0018602416
201	0x3b0a98a3	0.0021148107
202	0x3adf75dd	0.0017048676
203	0x3b03468b	0.002003106
204	0x3b1ef567	0.0024255158
205	0x3adb76ae	0.0016743743
206	0x3abc60e9	0.0014372143
207	0x3b0739e9	0.0020633882
208	0x3af09667	0.001835537
209	0x3abb9fae	0.0014314556
210	0x3ab24064	0.0013599512
211	0x3afb2aeb	0.0019162571
212	0x3b0bafdf	0.0021314544
213	0x3b1a1b3c	0.0023514768
214	0x3aaa2665	0.0012981413
215	0x3aa94945	0.0012915513
216	0x3adbf338	0.0016780859
217	0x3ababf0f	0.0014247614
218	0x3ac3d272	0.0014940037
219	0x3ae5bab6	0.0017526958
220	0x3af82338	0.0018931394
221	0x3ae11b77	0.0017174323
222	0x3ae0d38b	0.0017152888
223	0x3abf91dd	0.0014615614
224	0x3b0c045a	0.0021364898
225	0x3b1edb3a	0.0024239556
226	0x3b2148e3	0.0024610094
227	0x3aa22b0d	0.0012372449
228	0x3afc40b8	0.0019245362
229	0x3ad509b6	0.0016253504
230	0x3b1467c0	0.0022644848
231	0x3b0ea33a	0.002176477
232	0x3ad647bb	0.0016348282
233	0x3ad7f000	0.0016474724
234	0x3ab30192	0.0013657084
235	0x3abd4b0a	0.0014441919
236	0x3af171f8	0.0018420806
237	0x3aeb8a1e	0.0017970239
238	0x3acf9436	0.0015837017
239	0x3aeb29b6	0.0017941508
240	0x3af2650f	0.0018493253
241	0x3b1fd86c	0.0024390472
242	0x3afa6344	0.001910307
243	0x3afc9b4b	0.0019272355
244	0x3a974063	0.0011539574
245	0x3ae81f4a	0.001770952
246	0x3ae6f325	0.001762007
247	0x3afb3352	0.0019165075
248	0x3ad98c5c	0.0016597616
249	0x3ab9e5b5	0.0014182838
250	0x3ac906ef	0.0015337149
251	0x3abc8017	0.0014381435
252	0x3aff5d28	0.0019482719
253	0x3ada043b	0.0016633341
254	0x3afd3387	0.0019317725
255	0x3af5460d	0.0018712893

model.4.weight f4 [256, 512]
0	0x3c5ac8fa	0.013353581
1	0xbbff1ab9	-0.007785168
2	0xbd0a0f34	-0.033705905
3	0xbc236488	-0.009972699
4	0xbcd9283d	-0.026508445
5	0xbc658871	-0.014009581
6	0xbcb06142	-0.021530751
7	0x3ca671a9	0.02031787
8	0x3d50d4a0	0.050984025
9	0x3c95448a	0.018221159
10	0x3cd9ffb4	0.026611187
11	0xba2f5578	-0.0006688456
12	0x3d24079e	0.040046327
13	0x3d490ba7	0.04908338
14	0xbbba8b2e	-0.005692861
15	0xbca30949	-0.019901888
16	0xbc9a28a7	-0.018818213
17	0x3c7c52a9	0.015400567
18	0xbc1e23ae	-0.009652061
19	0x3b7aab8c	0.0038249223
20	0x3c948c7b	0.018133393
21	0x3cc57512	0.024103675
22	0xbd216a46	-0.03940799
23	0x3ced4e25	0.028967926
24	0x3d25a1d8	0.04043755
25	0x3d02cd34	0.03193398
26	0xbcce6fff	-0.025199888
27	0xbb6b097d	-0.003586381
28	0x3c0f0705	0.008729701
29	0x3ba0d446	0.0049081175
30	0xbc91da4f	-0.017804293
31	0xbcc5be37	-0.024138553
32	0x3d0eadaf	0.034833606
33	0xbd0d4629	-0.034490738
34	0x3b4b708a	0.003104242
35	0xbb1e843b	-0.0024187702
36	0x3ccbead4	0.024892248
37	0x3c955133	0.018227195
38	0x3bffa688	0.0078018345
39	0xbd32dac1	-0.04366565
40	0xbd09ebec	-0.03367226
41	0xbcf50dca	-0.029913802
42	0x3cb510e5	0.022102783
43	0xbbbbfb60	-0.0057367533
44	0x3d66c247	0.05633762
45	0x3c9fbf18	0.0195003
46	0xbc527eec	-0.012847643
47	0xbcae685c	-0.021289997
48	0x3bb35d74	0.005473787
49	0xbce5004c	-0.027954243
50	0x3c7af8ee	0.0153181385
51	0x3ca343b2	0.01992974
52	0x3a9f5e10	0.001215877
53	0x3c076104	0.008262876
54	0xbcae3ae7	-0.021268321
55	0x3d0603e3	0.03271855
56	0xbd402359	-0.04690871
57	0xbcacc715	-0.021091023
58	0xbd4dfb77	-0.050288644
59	0xbd154eec	-0.03645222
60	0x3d1c31a2	0.03813327
61	0x3d128abb	0.035776835
62	0xbc960364	-0.018312164
63	0x3d4478f3	0.04796691
64	0x3ce3e850	0.027820736
65	0x3c872afc	0.016499989
66	0xbb1d60d3	-0.002401401
67	0x3cc49693	0.02399758
68	0xbd4cdd95	-0.050016005
69	0x3ce4786b	0.027889451
70	0x3c8c1a92	0.017102513
71	0xbd5c3f9b	-0.053771596
72	0xbcb3d3f2	-0.02195165
73	0x3c9cb320	0.019128382
74	0xbbe8b7e1	-0.007101998
75	0x3d09cad7	0.03364071
76	0x3cfa13a7	0.03052695
77	0x3c0bdbca	0.0085362885
78	0x3cec9e4b	0.028884074
79	0x3c88c025	0.016693184
80	0xbc503fb7	-0.012710503
81	0xba9704c1	-0.0011521803
82	0x3cb1549c	0.02164679
83	0xbcdc472b	-0.026889404
84	0xbc8a3401	-0.0168705
85	0xbd1dcab2	-0.038523383
86	0x3cd1b086	0.025596868
87	0xbd2c51b9	-0.042070124
88	0xbca9001d	-0.020629937
89	0xbd47c21a	-0.048769094
90	0xbc082151	-0.0083087245
91	0xbcbabc43	-0.022794848
92	0xbd4caee3	-0.049971472
93	0x3cc27c06	0.02374078
94	0x3d1a6063	0.037689578
95	0x3d3c481b	0.045967203
96	0x3d6e1333	0.05812378
97	0x3c5cc2fe	0.013474224
98	0x3d1270f0	0.035752237
99	0x3d4b481b	0.049629312
100	0x3ca97a0a	0.020688076
101	0x3cd89593	0.02643851
102	0x3c82225f	0.01588553
103	0xbc88dafc	-0.016705982
104	0x3cde32f9	0.027123915
105	0x3cd9bae3	0.026578372
106	0x3bba94e9	0.005694021
107	0x3c1cf2c3	0.009579363
108	0xbc2b7863	-0.010465714
109	0xbd52ac82	-0.051434048
110	0xbd0344d3	-0.032048058
111	0xbc845335	-0.016152957
112	0xbb2891bd	-0.0025721632
113	0xbb5e113d	-0.0033884787
114	0xbc89b239	-0.016808616
115	0x3d56b6a8	0.05242029
116	0x3ca68994	0.020329274
117	0x3d0f4b41	0.034983877
118	0x3cda6cec	0.026663266
119	0x3cd39811	0.025829347
120	0x3c11b7b0	0.008893892
121	0x3cc9f9d6	0.024655264
122	0xbd168960	-0.036752105
123	0xbd008f53	-0.031386685
124	0x3c1b0d99	0.009463691
125	0xbccd10af	-0.02503237
126	0xbc51bae6	-0.012800908
127	0x3d07ee5b	0.033186298
128	0x3b1b8127	0.0023728104
129	0x3c6466fc	0.013940569
130	0xbc2fdc19	-0.010733628
131	0x3c276b40	0.0102184415
132	0x3bebb070	0.007192664
133	0xbcbce195	-0.023056785
134	0x3c470a0c	0.012148391
135	0xbd0c480e	-0.034248404
136	0x3cb9a83c	0.022663228
137	0x3cd4a799	0.025958823
138	0x3c9dd83e	0.019268151
139	0x3c41fb2a	0.011839667
140	0x3d402707	0.04691222
141	0xbcd3eb1d	-0.025868947
142	0x3d53a713	0.051673006
143	0xbce9ea65	-0.02855415
144	0xbc38ceb5	-0.011279752
145	0xbcadc4ed	-0.021212066
146	0x3ce12d7d	0.02748751
147	0xbd1df106	-0.038559936
148	0x3d6fa05c	0.05850254
149	0x3d0e5c25	0.034755845
150	0x3c3ab2b2	0.011395143
151	0xbd4ce5a0	-0.050023675
152	0xbd25b921	-0.040459756
153	0x3d003b7a	0.03130672
154	0xbd559768	-0.052146345
155	0xbb784c32	-0.0037887213
156	0x3cc19393	0.02362994
157	0x3d15f5e0	0.036611438
158	0x3ccfa265	0.02534599
159	0xbd1dd6af	-0.038534816
160	0x3c044dcf	0.008075192
161	0x3cc0064a	0.023440499
162	0x3c114c00	0.0088682175
163	0xbc4a4fc7	-0.012348122
164	0x3ce8d3a7	0.028421236
165	0x3baf97ed	0.005358687
166	0x3bcca0b9	0.0062447456
167	0x3c06b004	0.008220676
168	0x3cad4685	0.02115179
169	0x3c71fc30	0.014769599
170	0xbd116f89	-0.03550676
171	0xbc3e025c	-0.011597242
172	0x3c3f8628	0.0116897
173	0xbc6e51c7	-0.014545864
174	0xbd6b0d97	-0.057386007
175	0x3c8bef46	0.017081868
176	0x3ca17730	0.019710153
177	0x3d45f15b	0.048325878
178	0x3d1b8b0b	0.0379744
179	0xbcaced7c	-0.021109335
180	0xbd4ac26a	-0.049501814
181	0xbc5a7e8f	-0.013335838
182	0x3caeeeac	0.021354042
183	0x3b914c84	0.00443417
184	0xbd22f77d	-0.039786804
185	0xbd016400	-0.031589508
186	0x3ce5e18f	0.028061656
187	0x3d732c03	0.059368145
188	0x3d0c04ca	0.034184255
189	0xbb73d2c8	-0.0037204493
190	0x3cf67657	0.030085726
191	0xbca14ecb	-0.019690892
192	0x3c15539f	0.009114175
193	0xbc7b9e29	-0.015357533
194	0xbc881534	-0.016611673
195	0x3d881eb1	0.06646479
196	0xbb9a521f	-0.0047094966
197	0x3c9a8692	0.018862996
198	0x3ce67b5e	0.028134998
199	0x3a15efbd	0.0005719623
200	0x3cdabad7	0.02670042
201	0x3c8fb0c6	0.017540347
202	0xbc182651	-0.009286479
203	0xbb41ee27	-0.0029591413
204	0xbd07bc1f	-0.03313839
205	0x3b7df787	0.0038752274
206	0xbd4d8318	-0.05017385
207	0xbcfcc439	-0.030855285
208	0xbc73756c	-0.0148595385
209	0x3c572ce1	0.013133259
210	0x3d034dea	0.032056727
211	0x3c5c65f2	0.01345204
212	0x3c9e4ca0	0.019323647
213	0xbcd65fdb	-0.026168754
214	0x3bafaa76	0.0053608967
215	0x3c1d303a	0.009594018
216	0xbd05ed95	-0.03269728
217	0x3d27608f	0.04086357
218	0xbd5c1b9f	-0.05373728
219	0x3cb3804f	0.021911768
220	0x3c608f61	0.013706059
221	0xbc8b7e48	-0.017027989
222	0x3c87aa78	0.016560778
223	0xbc81c22b	-0.015839657
224	0xbcdc6a11	-0.026906045
225	0x3d0a2335	0.033724982
226	0xbc671256	-0.014103493
227	0x3ca07a7f	0.01958966
228	0x3bd92234	0.006626392
229	0x3bc57fdc	0.006027205
230	0x3cc313eb	0.023813209
231	0xbd2fc232	-0.04290981
232	0x3d3cf389	0.04613069
233	0xbb563c47	-0.0032689737
234	0x3d23e755	0.040015537
235	0xbbb39d7c	-0.00548142
236	0xbbf3ba5b	-0.007437987
237	0x3bd64ee4	0.006540166
238	0x3cb54239	0.022126304
239	0x3caa612f	0.020798294
240	0x3c6ac41b	0.014328982
241	0x3c960be8	0.018316224
242	0x3c881d10	0.01661542
243	0xbc122b37	-0.008921436
244	0x3afff7f6	0.0019528854
245	0xbd3433e7	-0.04399481
246	0xbb920006	-0.004455569
247	0x3cb131f5	0.021630267
248	0x3cbc722c	0.02300366
249	0x3d152cc7	0.036419656
250	0xbc01f951	-0.007932977
251	0x3c4a592a	0.01235036
252	0xbd17c9b9	-0.037057612
253	0xbcee19f2	-0.029065106
254	0x3b19a568	0.0023444537
255	0x3cce914f	0.025215773
