text/model/TextClassifier.pth (torch, 4745 bytes, 4 tensors)

layer1.weight f4 [20, 32]
-0.2169972 0.09575114 0.0113026 0.11404033 -0.11562294 0.4348491 0.727801 0.5387581
-1.3047386 0.29097533 0.1847815 0.75553375 0.35699797 0.98487496 1.5607737 0.06861545
0.75916785 0.19295928 -0.60942656 0.20540072 0.02772702 -0.42099974 -0.39193758 0.24473232
0.19578478 0.091157705 0.19042121 0.12987323 0.14060208 0.1552211 0.20098108 -0.038538914
0.89269423 0.3025496 0.04913718 0.2618704 0.15354776 -0.42949924 -0.67990327 -0.7675358
-0.46023598 0.32008025 0.07068108 -0.17140694 -0.7888401 0.7479848 0.28676474 0.39829993
-1.4547 0.28897786 1.1025723 0.26676983 0.17213845 -0.26853755 0.91441584 -0.71701956
0.21333821 0.33550316 0.18851832 0.25962794 0.58952445 0.3302582 0.22842346 0.24395303
0.20655894 0.4354652 0.3884875 0.57031983 0.57591987 -0.6064684 -0.71546435 0.50022805
1.9278755 0.7621922 0.15754746 -0.79968023 0.46869206 -1.0327452 -2.0939932 0.73363775
1.0881389 0.5161007 0.29585183 0.66757333 0.4845855 0.34138826 0.2804777 0.59958625
0.30466595 0.4490641 0.98958933 0.1631318 -0.42316112 0.50939715 0.44190168 0.415419
1.0858634 0.28368905 0.22017592 0.086986355 0.17395292 -0.6312865 -0.8159168 -0.82008415
0.96342 0.1861019 -0.1252811 -0.23910765 -0.69498175 0.6411067 -0.57257235 0.27266696
-1.0410441 0.21477255 1.187918 0.08626013 0.31868 -0.37761158 0.93301564 -0.61301047
0.051422216 0.3170278 0.19323139 0.21565527 0.45631644 0.26904234 0.15408218 0.28259742
-0.3092528 0.16220762 0.22930047 0.13964538 -0.08091635 0.78354955 2.5421755 0.54077494
-2.6175866 0.43980804 0.48234183 1.3477296 0.5958358 0.6607074 1.9598033 0.34578207
0.8643645 0.21244965 -1.0186195 0.3695326 0.38179398 -0.33689654 -0.63895535 0.59543765
0.3471634 0.15735108 0.46895754 0.5128012 -0.6735354 0.40234756 0.2752957 0.10732147
-1.1695275 0.3204671 0.2100898 0.17144263 0.30294502 0.5793662 0.5685778 0.9537317
1.576161 0.3257963 0.22064069 0.40634885 1.2695534 -1.2301788 -0.24283719 0.207541
1.6439873 0.3224254 -1.4526074 0.41964453 0.3682697 0.75178856 -1.0043045 0.81027573
0.14305763 0.39754644 1.0558901 0.114151284 -0.6877741 0.2786258 0.4552972 0.33013397
-0.1332848 0.085825816 -0.008746511 0.058275133 0.17038332 -0.07970355 -0.1620622 -0.17297553
-0.08670732 -0.037708852 -0.12779231 -0.04261131 0.01719001 0.11614544 0.12573014 -0.018525714
-0.17235202 0.16124307 -0.14017923 -0.010728568 0.16641869 0.15397935 -0.09614082 0.082566634
-0.07315622 -0.113138534 -0.06847453 -0.015883565 0.053402077 -0.089050055 0.13144614 -0.03082186
-1.1323508 0.38910955 0.28519124 0.24003623 -0.012943847 0.93821704 0.9590531 1.437404
-1.1508265 0.32140952 0.3856486 0.6730191 1.3105123 -0.558146 1.3678031 0.27295893
2.369142 0.42462525 -2.1879342 0.45284268 0.30655175 1.0800593 -1.503291 1.3968207
0.19584167 0.4091241 0.5939401 -0.06400134 -0.86716205 0.36038822 0.41361165 0.032639522
00000000: 8434 5ebe 2c19 c43d 8a2e 393c fa8d e93d
00000010: b8cb ecbd 8ba4 de3e 2b51 3a3f 0dec 093f
00000020: ad01 a7bf b8fa 943e 5d37 3d3e a96a 413f
00000030: 70c8 b63e c420 7c3f 6fc7 c73f 4286 8c3d
00000040: d358 423f 1e97 453e 6103 1cbf 9154 523e
00000050: c723 e33c 478d d7be 0bac c8be 1c9b 7a3e
00000060: ce7b 483e e4b0 ba3d c7fd 423e 7dfd 043e
00000070: fef9 0f3e 48f2 1e3e fccd 4d3e fbda 1dbd
00000080: 9c87 643f c8e7 9a3e 1144 493d e113 863e
00000090: a03b 1d3e 53e7 dbbe 240e 2ebf 3a7d 44bf
000000a0: 0da4 ebbe 8fe1 a33e 3ec1 903d 4d85 2fbe
000000b0: 6df1 49bf ef7b 3f3f d4d2 923e f8ed cb3e
000000c0: 9c33 babf e8f4 933e 1721 8d3f 0e96 883e
000000d0: 1045 303e c17d 89be 2817 6a3f 988e 37bf
000000e0: 5575 5a3e 12c7 ab3e f20a 413e f4ed 843e
000000f0: 13eb 163f 9a17 a93e d7e7 693e d3ce 793e
00000100: 3084 533e 4bf5 de3e d5e7 c63e 7b00 123f
00000110: 7c6f 133f 8341 1bbf ac28 37bf f20e 003f
00000120: a0c4 f63f 071f 433f 1f54 213e d8b7 4cbf
00000130: 68f8 ef3e ff30 84bf fc03 06c0 afcf 3b3f
00000140: 2348 8b3f 2d1f 043f e479 973e 16e6 2a3f
00000150: 971b f83e 71ca ae3e c69a 8f3e 7c7e 193f
00000160: 2dfd 9b3e bbeb e53e ba55 7d3f 060c 273e
00000170: 93a8 d8be da67 023f f040 e23e cdb1 d43e
00000180: 92fd 8a3f b13f 913e cc75 613e e725 b23d
00000190: b720 323e fe9b 21bf ecdf 50bf 09f1 51bf
000001a0: b1a2 763f 7f91 3e3e b049 00be a3d8 74be
000001b0: 53ea 31bf 921f 243f 1a94 12bf 019b 8b3e
000001c0: ef40 85bf 56ed 5b3e b20d 983f 27a9 b03d
000001d0: 062a a33e 4e56 c1be 1dda 6e3f 41ee 1cbf
000001e0: 1aa0 523d 7851 a23e 73de 453e bcd4 5c3e
000001f0: 4fa2 e93e ebbf 893e b8c7 1d3e 9cb0 903e
00000200: 6256 9ebe c119 263e becd 6a3e 33ff 0e3e
00000210: 79b7 a5bd b496 483f 01b3 2240 3a70 0a3f
00000220: 8a86 27c0 852e e13e 82f5 f63e 6782 ac3f
00000230: b288 183f 1f24 293f d6da fa3f 590a b13e
00000240: fe46 5d3f 678c 593e 2062 82bf 6033 bd3e
00000250: 807a c33e b47d acbe 9492 23bf 9a6e 183f
00000260: 67bf b13e a420 213e 341b f03e f046 033f
00000270: d16c 2cbf 8000 ce3e 8ff3 8c3e 5ccb db3d
00000280: 14b3 95bf 4414 a43e c821 573e a88e 2f3e
00000290: 9c1b 9b3e 5851 143f 518e 113f c327 743f
000002a0: a5bf c93f c6ce a63e a2ef 613e f50c d03e
000002b0: ba80 a23f 8076 9dbf 50aa 78be a185 543e
000002c0: 2d6e d23f f114 a53e 0aef b9bf a6db d63e
000002d0: d98d bc3e 3775 403f 0d8d 80bf 3b6e 4f3f
000002e0: b37d 123e 358b cb3e 6827 873f 26c8 e93d
000002f0: f711 30bf 0aa8 8e3e b71c e93e 5207 a93e
00000300: d07b 08be 72c5 af3d 874d 0fbc e8b1 6e3d
00000310: f778 2e3e 9d3b a3bd a2f3 25be 7f20 31be
00000320: 9b93 b1bd 9974 1abd fddb 02be 3289 2ebd
00000330: 10d2 8c3c a9dd ed3d 67bf 003e 3dc3 97bc
00000340: 0c7d 30be e71c 253e 258b 0fbe e0c6 2fbc
00000350: a969 2a3e c3ac 1d3e 7ae5 c4bd b218 a93d
00000360: eed2 95bd 2db5 e7bd 603c 8cbd 401e 82bc
00000370: 23bc 5a3d e05f b6bd d199 063e 207e fcbc
00000380: dff0 90bf 5e39 c73e 9604 923e 0fcc 753e
00000390: 6e12 54bc fe2e 703f 8184 753f dbfc b73f
000003a0: 484e 93bf ca8f a43e bc73 c53e fb4a 2c3f
000003b0: debe a73f a8e2 0ebf 2c14 af3f 46c1 8b3e
000003c0: 06a0 1740 7b68 d93e 1d07 0cc0 ffda e73e
000003d0: 5af4 9c3e 623f 8a3f d76b c0bf 05cb b23f
000003e0: b88a 483e b778 d13e 750c 183f 2213 83bd
000003f0: 55fe 5dbf ce84 b83e e8c4 d33e 05b1 053d

layer1.bias f4 [20]
0.3473985 0.24307004 0.9444082 0.3256888 0.48199734 0.74253386 -0.21571569 0.8581887
0.30256355 0.3992867 0.46485555 -0.20638454 0.9073523 0.25709766 0.48029476 0.3943048
0.1619785 0.39646128 0.3168049 0.47861052
00000000: 37de b13e 5ae7 783e bcc4 713f afc0 a63e
00000010: 5bc8 f63e b316 3e3f 93e4 5cbe 41b2 5b3f
00000020: 9ce9 9a3e 4e6f cc3e 8c01 ee3e 7856 53be
00000030: 3e48 683f 4ea2 833e 32e9 f53e 52e2 c93e
00000040: b1dd 253e f9fc ca3e 4034 a23e 700c f53e

layer2.weight f4 [4, 20]
0.2550273 0.94258046 -1.5010202 0.21034488 -0.20869316 -2.1490288 -0.08255396 -1.1908805
0.75595385 -0.39615223 -1.0470916 -0.111168176 -0.6961248 3.769892 1.8692608 0.43942243
0.41179723 0.7205731 0.99341404 0.7150605 1.0334157 -1.1625872 -1.3790978 -1.3373531
2.166159 0.23775283 0.08597014 1.252386 0.838267 1.3504671 0.7066123 -0.14074636
-3.8861992 -3.4969685 0.9485436 -2.1502821 -0.2212312 0.5384231 1.3168545 -0.36740324
-1.6860945 0.710987 0.86517483 1.0566056 -2.7641373 -1.5156885 -0.015161679 -2.918614
-0.90524393 -1.7804847 -1.4133149 -0.25874975 1.8919646 -2.644845 -1.7492571 1.6278796
0.82771564 -0.6690631 -1.8258384 0.34174296 -0.47343087 -1.8885852 1.6267582 -0.49140438
-1.0919095 1.7216614 -0.077275544 1.0164058 -1.4429281 -0.6568867 1.0378155 -0.11931361
0.100823164 -0.71573687 -4.153224 -2.7389903 -1.781093 -1.194705 -1.7675871 -2.0914266
00000000: f092 823e f44c 713f 6e21 c0bf a664 573e
00000010: a9b3 55be b089 09c0 0d12 a9bd c66e 98bf
00000020: 3186 413f 77d4 cabe 1907 86bf 24ac e3bd
00000030: 3c35 32bf e945 7140 f043 ef3f fafb e03e
00000040: 16d7 d23e 7b77 383f 6250 7e3f 340e 373f
00000050: f746 843f a8cf 94bf 4786 b0bf 632e abbf
00000060: 59a2 0a40 7a75 733e 1d11 b03d 2f4e a03f
00000070: ab98 563f 1bdc ac3f 8be4 343f d01f 10be
00000080: 7db7 78c0 55ce 5fc0 c1d3 723f 399e 09c0
00000090: 6f8a 62be 19d6 093f b08e a83f 471c bcbe
000000a0: f2d1 d7bf 3e03 363f 197c 5d3f da3e 873f
000000b0: a0e7 30c0 1502 c2bf b168 78bc 92ca 3ac0
000000c0: 11be 67bf ece6 e3bf 81e7 b4bf d97a 84be
000000d0: e52b f23f 2445 29c0 a8e7 dfbf 5c5e d03f
000000e0: 2ce5 533f b847 2bbf 13b5 e9bf eff8 ae3e
000000f0: 8865 f2be 29bd f1bf 9d39 d03f 5b99 fbbe
00000100: b1c3 8bbf 675f dc3f a442 9ebd 9619 823f
00000110: deb1 b8bf ba29 28bf 23d7 843f b25a f4bd
00000120: 607c ce3d 883a 37bf 36e7 84c0 9e4b 2fc0
00000130: dbfa e3bf 18ec 98bf 4b40 e2bf efd9 05c0

layer2.bias f4 [4]
-0.21504396 -0.11463871 0.2767561 0.38330993
00000000: 7c34 5cbe b3c7 eabd fab2 8d3e 3341 c43e
