text/model/text_classifier_model.pth (torch, 5248 bytes, 4 tensors)

layer1.weight f4 [20, 32]
000000 42 bd 04 be 7c 39 70 bd 62 0b 91 be 4e b6 6f 3e
       -0.12962821 -0.05864857 -0.28328997 0.23409387
000010 d4 70 ea 3e 82 97 d6 3e bf c0 08 bd 0d 36 9d 3f
       0.45789206 0.41912466 -0.033386942 1.228212
000020 1c 17 25 3e ea e5 a1 be 72 c3 a9 3e 53 4d 92 bf
       0.16122097 -0.31620723 0.33156925 -1.1429847
000030 4b f2 22 be 93 71 d4 3e e9 39 da 3e e3 5b 8a be
       -0.1591274 0.414929 0.42622307 -0.2702323
000040 54 90 e7 bd 2f 9d 30 3e 98 7b 0e be 1c 34 76 3e
       -0.11306825 0.17247461 -0.13914335 0.24043316
000050 98 f4 e3 be ad f7 ac bd a6 b1 38 be d0 9e b2 3d
       -0.44522548 -0.08445678 -0.18036518 0.08721697
000060 56 fe 58 3d ad 5a 44 3e a7 e9 15 3d e3 fb d6 3e
       0.05297693 0.19175215 0.03659978 0.4198905
000070 3c 7e ef 3d a1 c0 0c 3e c0 15 6f bd 6a 63 fb 3d
       0.11693999 0.13745357 -0.05837035 0.12274821
000080 b2 cb 32 bf 1e c6 3a bd 92 7f f1 3e a5 be 36 3f
       -0.69842064 -0.045599096 0.4716764 0.7138465
000090 62 21 0d 3f 6f e5 8c 3e 3c a1 1a bf 51 a4 5b 3f
       0.55129063 0.27518794 -0.60402274 0.857976
0000a0 71 f9 d9 be d2 f7 09 bf ed ce 71 3f 63 59 80 bc
       -0.4257312 -0.5389377 0.9445637 -0.015667623
0000b0 79 24 dd be 68 5e 8a 3e 2f 04 a8 3f 90 31 b2 bf
       -0.4319189 0.2702515 1.3126277 -1.3921375
0000c0 7d 2c 39 3e f2 40 06 3e e4 03 18 be 46 bc fe 3d
       0.18083377 0.13110712 -0.14845234 0.12438254
0000d0 7b bb 49 be e7 76 c1 be 3e 0d c2 be 51 04 b8 3d
       -0.19700424 -0.37786028 -0.37900728 0.08985198
0000e0 66 19 c3 3e 07 2e b0 be a8 de 4e bf 1d 0d 35 3f
       0.38105315 -0.34410116 -0.80808496 0.70723134
0000f0 9d 74 2c 3e 23 0c 02 3e 94 fd 08 3e 5a e7 00 bf
       0.1684136 0.12699942 0.13377982 -0.50353014
000100 cf ad 2a bf 83 4b 34 3e c6 5f 87 3e b0 28 e4 3e
       -0.6667146 0.1760693 0.26440257 0.44562292
000110 d4 63 09 3f 51 7a f4 3e ff 12 2b bf 9b 4a b8 3f
       0.5366795 0.4774957 -0.6682586 1.4397768
000120 79 ab 27 bf 66 1b 6e bf a9 e5 0e 3f 92 3f bd bf
       -0.6549602 -0.93010557 0.55819184 -1.4785025
000130 fb 21 90 be e3 37 90 3e 6c b3 61 3f 85 db b4 bf
       -0.28150925 0.28167638 0.881644 -1.4129492
000140 6c 19 ca 3e 48 17 16 3e 60 94 21 be 6c d2 a7 3e
       0.3947252 0.14657319 -0.15779257 0.32777727
000150 e9 4f a2 be 82 9e d9 be d1 da ea be d5 7f 25 3e
       -0.31701592 -0.42503744 -0.4587007 0.16162045
000160 28 68 bc 3e 2b 28 32 bf ca c6 1a bf 5a 50 65 3f
       0.36798215 -0.6959254 -0.6045958 0.8957573
000170 88 a9 2e 3e 00 f9 6c 3e 8c 82 7f 3e 4c 33 2a bf
       0.17056859 0.23141861 0.24952143 -0.6648452
000180 36 55 86 bf b5 cc da 3e 09 cd 71 3f be 59 1f 3f
       -1.0494754 0.42734304 0.94453484 0.6224631
000190 ad 7b 7c 3f b3 b1 03 3d 0a 4a 60 bf d3 34 1c c0
       0.98626214 0.03215189 -0.87612975 -2.4407241
0001a0 4c c7 08 bf 05 76 18 bf ec f2 4f 3f 3a 3e 25 40
       -0.534291 -0.59555084 0.81230044 2.581923
0001b0 e6 20 4d bf 7e 69 bb 3e 65 df a4 3f 8f af 0d c0
       -0.80128324 0.36603922 1.2880675 -2.2138402
0001c0 42 9b 1e 3f 48 04 84 3e 98 9e 09 be c0 a1 ee 3e
       0.61955655 0.25784516 -0.13439405 0.4660778
0001d0 80 a2 25 3f 1f d2 20 bf dc 4b 22 bf 14 b1 85 3e
       0.6470108 -0.6282062 -0.63397 0.26111662
0001e0 4f 2e 2f 3f 96 b8 23 bf 33 1f 51 bf 9e 62 43 3f
       0.68430036 -0.6395353 -0.8168823 0.7632235
0001f0 e7 f9 97 3d 76 f0 4c 3f e2 66 05 3e 24 92 04 bf
       0.07420712 0.80054414 0.13027528 -0.5178549
000200 69 33 14 be a8 84 7a bd 95 82 1a 3f ca 28 19 3e
       -0.14472736 -0.061161667 0.603555 0.14956966
000210 d4 be 85 3e db 65 5e be aa 79 d3 3d 2c 5b dc bf
       0.26122153 -0.21718542 0.1032594 -1.7215323
000220 a0 7c ba be 95 7e 4d 3f 3f 38 8e 3e a2 3b e6 3f
       -0.36423206 0.80271274 0.27777287 1.7986948
000230 fe a5 8c 3e 2e e2 03 3e a5 fa cc 3e b7 0e 43 3e
       0.27470392 0.1287925 0.40034977 0.19048582
000240 51 78 bb 3e 63 db ad 3c 2b 2a b2 3e e5 69 c2 3d
       0.36615232 0.021222776 0.34797797 0.09492854
000250 6c 0a 84 3f 86 f7 04 be 39 c3 7b 3e 3a 94 91 3d
       1.031568 -0.12985048 0.2458619 0.0710835
000260 74 71 7f 3e be 6f 86 be 8f 78 bc be 8a b3 9e be
       0.24945623 -0.26257128 -0.3681073 -0.30996352
000270 1a 60 a6 bc f6 42 37 3f 69 e7 52 3e 56 a2 82 be
       -0.020309497 0.7158655 0.20596088 -0.25514477
000280 c2 4a 3f 3f 9f 8d a9 3e 48 c3 03 bf ec 18 2c bf
       0.74723446 0.3311586 -0.5146985 -0.6722553
000290 ee 3d 07 bf 1b cc f8 be 34 3e 38 3f bc 75 62 3f
       -0.5282887 -0.4859322 0.71969914 0.884609
0002a0 fa fb f0 3e ce 9c 85 3f 1e f9 dc be 23 65 83 be
       0.47067243 1.0438478 -0.4315881 -0.256631
0002b0 97 dc 2c 3f 40 14 87 3e d9 53 8b bf 46 a3 ae 3f
       0.67524093 0.26382637 -1.0884963 1.3643577
0002c0 40 9a a0 3e ba b3 0e 3e 31 49 f5 3e 0d 9f b7 3e
       0.31367683 0.13935748 0.47907403 0.35863534
0002d0 80 ae fb bd 18 7d d7 3e 2a ce 19 3f ff e4 64 3c
       -0.122891426 0.42087626 0.60080206 0.013970613
0002e0 b3 d2 50 be fe c8 b5 3e 61 39 cf 3e 65 ef 23 bf
       -0.20392875 0.35504907 0.40473464 -0.6403716
0002f0 cb 02 e3 3d 8d 98 71 3e 30 6c 4e 3e 34 d9 8a 3e
       0.11084517 0.2359335 0.20158458 0.27118838
000300 78 3f 8c 3c 4a 75 ae 3d 18 56 59 3d 28 fc 0b be
       0.017120108 0.08518465 0.05306062 -0.13670409
000310 b0 6b d8 3d 03 65 0b 3e 20 cd 78 3d 6f 4e b0 bb
       0.10567415 0.13612752 0.060742497 -0.0053804438
000320 9a 94 b2 3d d8 23 07 bd 8c b4 8b 3d 20 29 5e bc
       0.0871975 -0.032993168 0.06821546 -0.01355961
000330 d8 98 18 3d b1 56 30 3c d8 60 c8 bc c0 d4 01 bb
       0.03725514 0.010762856 -0.024460241 -0.0019810647
000340 c0 b8 47 bd 05 87 14 be 3e 71 ef 3d b5 31 06 3e
       -0.048760176 -0.14504631 0.11691521 0.13104899
000350 20 49 4e bc 88 64 f1 3c 08 05 aa 3c 70 de 4d bc
       -0.012590677 0.029466882 0.020754352 -0.01256524
000360 d9 c3 34 3e 68 98 8c 3c 35 f2 97 bd 43 d3 23 3e
       0.17652835 0.017162517 -0.07419244 0.15998559
000370 12 dd b5 3d 45 db 12 be ec 66 21 3d 77 81 18 be
       0.088800564 -0.14341457 0.039404795 -0.14893137
000380 d9 e5 8a 3f 54 2d 6e 3e 51 59 c6 be d2 90 b1 be
       1.0851394 0.23259479 -0.38740018 -0.34680802
000390 67 97 f2 be c9 24 9a be b4 39 53 3f 14 2c 0e bf
       -0.47381136 -0.3010619 0.82509923 -0.5553601
0003a0 33 e5 b6 3e a4 d0 5c 3f 77 db e5 be aa 86 ce 3f
       0.3572174 0.8625586 -0.44894 1.6134846
0003b0 af 7f bd 3e 93 c6 6b 3e 5d 1a 6e bf 01 e5 b4 3f
       0.37011477 0.23024969 -0.9300898 1.4132386
0003c0 78 f3 01 3f 1f 90 47 3d 5b 91 3d 3e c9 82 82 3e
       0.5076213 0.04872143 0.1851248 0.25490406
0003d0 d5 35 c8 3e da 79 09 3f 10 aa e1 3e c0 55 32 3e
       0.3910357 0.53701556 0.4407506 0.17415524
0003e0 33 bf 4a be db f4 00 3f e4 77 6b 3f e6 b7 fb be
       -0.19799499 0.5037362 0.91979814 -0.4916374
0003f0 d2 4f d6 bd 78 ae f1 3e 4e cc 3a bd df fd 1c 3f
       -0.10464443 0.47203422 -0.045604996 0.61324877

layer1.bias f4 [20]
000000 0e 25 e6 3e a8 a1 de 3e 77 c8 29 3f b3 fc 71 3f
       0.44950145 0.4348271 0.6632151 0.94526213
000010 ee 3b c1 3e 6d 2b fe 3e f9 ab 65 be d5 08 f0 3e
       0.37741035 0.49642506 -0.22428884 0.46881738
000020 4e 78 ca 3e 35 bf bf 3e ab a7 96 3e 17 9d c5 3e
       0.3954491 0.37450567 0.29424796 0.38596413
000030 14 86 fb 3e cc e6 99 3e 94 40 10 be 27 5a 08 3e
       0.4912573 0.30058897 -0.14087135 0.1331564
000040 cd e3 f5 3e 23 0c 05 3f a2 57 d8 3e fc 48 26 be
       0.4802536 0.51971644 0.4225436 -0.16238779

layer2.weight f4 [4, 20]
000000 9f eb 80 bf 60 76 da bf f0 44 22 c0 cb c3 42 be
       -1.0071906 -1.7067375 -2.5354576 -0.19020002
000010 e1 e9 37 3f c3 45 23 3f 25 48 58 be 7d 68 8a 3f
       0.71841246 0.6377832 -0.21121271 1.0813137
000020 92 3e ab be 02 f2 9e bf 2e 76 a8 bf 66 3d 61 bf
       -0.33446175 -1.2417605 -1.3161066 -0.8798431
000030 6a 31 29 3e 26 b2 94 3f d0 2b d7 3c 5d d7 8c bf
       0.16522756 1.1616867 0.026266009 -1.1003224
000040 5e d6 4c 3f c7 d9 36 3f 97 e1 e9 bf 16 cc 0c bd
       0.800146 0.7142605 -1.827197 -0.03437432
000050 0e 2e 1f bf 9c 73 e3 3e e9 9c 32 bf 4c 76 0b 40
       -0.6217965 0.4442414 -0.69770676 2.1790953
000060 c3 1f 45 3f 8b 9a f7 bf 5b 9b e0 3d 10 d0 59 be
       0.7700159 -1.9344038 0.10967132 -0.21270776
000070 bb 5d ef bf 67 e2 d2 bf 1f 31 03 bf 6a 23 6b 3f
       -1.8700479 -1.6475343 -0.5124683 0.9185091
000080 32 59 e0 bf 75 dc 7b bf 88 ba 0f be 81 77 65 bf
       -1.752722 -0.98383266 -0.14036 -0.89635473
000090 cf f1 1c 3f 00 e0 9f bf c9 1c 16 be ee b1 f0 bd
       0.6130647 -1.2490234 -0.14659418 -0.117526874
0000a0 89 38 73 3e 3b 91 6e bf 7a 9f 16 bf ff 9b 8d c0
       0.23752035 -0.93190354 -0.5883709 -4.4252925
0000b0 db f6 b9 bf 86 4a 57 3f 6d 47 83 bd 07 7d a5 3e
       -1.4528459 0.8409809 -0.06410108 0.3232195
0000c0 40 b4 9d 3f d6 20 74 3f 37 a6 17 3f 33 97 95 bf
       1.2320633 0.95362604 0.59238 -1.1686767
0000d0 97 9f 42 3f c9 0a 83 be a4 56 d6 3d fc 72 e3 3f
       0.76024765 -0.25594166 0.10465744 1.7769465
0000e0 80 7c a6 bf 57 8d 1e 3f 00 17 4b bf fb 75 1e be
       -1.3006744 0.6193442 -0.7933197 -0.15474693
0000f0 c2 13 45 3f f0 fd 5e 3f a6 73 e8 3f 38 08 7c bf
       0.76983273 0.8710623 1.8160293 -0.9845004
000100 0b 17 97 bf eb 6c 36 bf e6 87 07 be 21 4a d3 bf
       -1.1803907 -0.71259946 -0.13235435 -1.6506997
000110 19 1c 26 bf be 7f c9 3e 60 08 a8 3e d6 7e cf 3e
       -0.64886624 0.39355272 0.3281889 0.40526456
000120 6c 0a 30 3e af bc 33 bf 80 22 a0 3a 30 01 c7 bf
       0.17191476 -0.70209783 0.0012217313 -1.5547237
000130 ea 69 bf bf 69 d7 63 bf 65 34 9b 3f 88 7b 87 be
       -1.4954197 -0.89000565 1.2125365 -0.26461434

layer2.bias f4 [4]
000000 7b 86 08 3e 6d b3 23 3e ed d4 0e be 43 9f 84 3d
       0.1333255 0.15986414 -0.13948412 0.06475689
