text/model/TextClassifier.pth (torch, 5192 bytes, 4 tensors)

layer1.weight f4 [20, 32]
000000 61 05 7e bd e2 81 87 bd b2 80 ba 3d e6 11 0b be
       -0.06201685 -0.0661657 0.09106578 -0.13581046
000010 18 c6 ce bc 4c 03 8e bd 4c a6 a7 bd 00 1d 2d be
       -0.025240943 -0.069342226 -0.081860155 -0.16905594
000020 41 2f ee bd 91 c5 42 3d 07 cd 1b 3e b8 43 94 3c
       -0.11630107 0.047551695 0.1521493 0.018098697
000030 38 88 07 be 96 46 d3 3d d8 a7 43 be 80 e3 80 3a
       -0.13235557 0.103161976 -0.19106996 0.0009833425
000040 58 1e 01 bd eb d4 16 be 32 1e 06 be c6 d1 7c bd
       -0.03152308 -0.1472966 -0.13097456 -0.061723493
000050 4e 1f 68 bd 03 e0 15 be e8 e8 28 bd 8f a7 0c 3e
       -0.05667048 -0.14636235 -0.04123774 0.13735794
000060 fc f3 1b be e4 fe f0 3d 6f 1e 99 3c 18 9b 80 3d
       -0.15229791 0.117673665 0.01869127 0.06279582
000070 0a 98 03 be 50 76 99 bd 04 aa ac bd bb 81 0a be
       -0.12850967 -0.074932694 -0.084308654 -0.13526051
000080 ba 1a cc be 6f e0 18 3e 57 37 04 3e 02 55 0a 3e
       -0.3986414 0.14929365 0.12911735 0.1350899
000090 cd d3 47 be 64 7e 04 3f 9a 1b 41 3f ba 28 92 3e
       -0.1951439 0.51755357 0.7543274 0.28546697
0000a0 1f 4f 05 c0 c4 9f 47 3e 0f 3a f5 3e 9f 89 8a 3f
       -2.0829542 0.1949454 0.47895858 1.0823249
0000b0 e9 2f c9 3e 2a 74 a6 3f d8 2a 10 40 f6 37 8e 3d
       0.39294365 1.30042 2.252615 0.069442675
0000c0 08 42 19 3f 3d 33 5f 3e 0d 43 84 bf f0 26 65 3e
       0.5986638 0.2179689 -1.0332962 0.22378135
0000d0 98 89 4a 3d 67 b3 90 be 87 96 10 bf b1 db ee b9
       0.049447626 -0.28261873 -0.56479686 -0.0004555858
0000e0 8a 5e 64 3e ab e0 00 3e d4 92 3d bd 4d 85 5e 3e
       0.22301689 0.12585704 -0.046282604 0.21730538
0000f0 c3 6b a8 3e cb 21 70 3e e6 2b 68 3e 06 14 df bd
       0.32894716 0.23450391 0.22672996 -0.10892491
000100 c1 3e 82 bf 94 e2 03 3e 80 8e f0 3c 52 5f 6a 3a
       -1.0175401 0.12879401 0.029364824 0.00089405954
000110 f7 cd 9f bc 74 0d 2a 3f 8b 1c 25 3f db 97 15 3f
       -0.019507391 0.6642678 0.6449668 0.5843484
000120 47 e2 c7 bf d7 6f a9 3e 1c 83 cc 3e bb 3f 03 3f
       -1.5615929 0.3309314 0.3994378 0.5126912
000130 11 cf 42 3f 17 4b d9 be de 70 cf 3f 2d fa b9 3d
       0.7609721 -0.42440102 1.6206319 0.0908092
000140 81 fb 93 3f 86 32 6d 3e b4 b6 e1 bf 08 db 77 3e
       1.1561128 0.23163804 -1.7633882 0.24204648
000150 36 d8 63 3e e0 36 3a be aa 3c 9f bf 04 db 1c 3f
       0.22250447 -0.18184996 -1.2440388 0.6127169
000160 8f d7 0b 3e 85 62 16 3e ad 50 02 3f d3 f4 22 3e
       0.13656448 0.1468602 0.5090435 0.15913706
000170 d2 d2 67 bf 5e 89 13 3e 30 0a 6e 3e a9 bd 0f be
       -0.9055606 0.1440787 0.23246074 -0.14037193
000180 29 85 c4 3f dd 9d a3 3e f6 c7 86 3d 96 ee 8b 3e
       1.5353137 0.31956378 0.06581108 0.27330464
000190 0a 76 c0 3e 89 20 52 bf 51 98 7e bf 79 85 9c bf
       0.37590057 -0.82080895 -0.99451166 -1.2228233
0001a0 8f e5 5f 3f b3 42 84 3e 7c 11 45 be f1 b5 d0 be
       0.87459654 0.25832137 -0.19244951 -0.4076381
0001b0 81 7f 9f bf 20 33 ac 3f e1 35 ba be be e9 c5 3e
       -1.2460786 1.3453102 -0.3636923 0.38654894
0001c0 c1 74 04 c0 d9 65 61 3e 0d a6 f7 3f 5f e3 3a 3e
       -2.069626 0.22011508 1.934755 0.18250798
0001d0 3c fe 45 3e 0c 60 10 bf 34 ae d2 3f 55 de 6c bf
       0.19335264 -0.56396556 1.6459413 -0.9252675
0001e0 d8 77 90 3e 5b 3a c6 3e 6f b2 17 3e b2 71 90 3e
       0.28216434 0.38716397 0.14814161 0.28211743
0001f0 f5 03 5f 3f 8e df 84 3e b2 73 24 3e c2 aa bb 3e
       0.8711541 0.2595181 0.1605976 0.36653715
000200 0a ad b4 3f 71 26 e4 3e 9e 64 95 3e 99 f2 de 3e
       1.4115307 0.44560578 0.29178327 0.43544462
000210 81 f2 10 3f 1b dd 91 bf b2 5c aa bf 38 8e a7 bf
       0.5662003 -1.1395601 -1.3309538 -1.3090277
000220 d9 11 ef 3f 00 5e 85 3e c9 95 73 be 52 b7 2d bf
       1.8677322 0.2604828 -0.23787607 -0.6785785
000230 f4 07 b3 bf 08 8f ab 3f c3 6e d1 bf d6 59 f3 3e
       -1.3986802 1.3403025 -1.6361927 0.47529477
000240 d3 32 11 c0 c4 0d a5 3e df 8f 12 40 b9 f9 d0 3e
       -2.268727 0.32237065 2.2900312 0.40815523
000250 f1 7e 63 3e b0 f9 1f bf 46 d4 de 3f ab a2 84 bf
       0.22216393 -0.6249037 1.7408531 -1.0362142
000260 b2 cb ab 3e 57 df f5 3e c5 f6 1d 3f 58 02 88 3e
       0.33553845 0.48021957 0.61704665 0.26564288
000270 2e 30 90 3f f5 90 a8 3e 2a 98 ba 3e 3e f9 f2 3e
       1.1264703 0.32923093 0.36444217 0.47455782
000280 30 2b a1 bf 4d 10 73 3e c4 ab 84 3e 83 d6 dd 3d
       -1.2591305 0.23736687 0.25912297 0.108319305
000290 bf 54 b4 bd ce 60 53 3f 27 0b 92 3f 22 4c b4 3f
       -0.088052265 0.8256959 1.1409653 1.4085734
0002a0 99 a1 0a c0 93 15 a3 3e fc 02 28 3f 34 3f 64 3f
       -2.1661131 0.31852397 0.65629554 0.8915894
0002b0 19 eb 9d 3f a0 c3 56 bf a7 fe e9 3f c4 4b 30 3e
       1.2337371 -0.8389225 1.8280839 0.17216402
0002c0 85 ae f2 3f 88 48 b1 3e 29 05 fb bf e7 0d c2 3e
       1.8959509 0.3462565 -1.961095 0.37901232
0002d0 1f 36 8d 3e 3d f4 80 3f a8 bc af bf 8b 5a 9c 3f
       0.27580354 1.0074536 -1.3729448 1.2215132
0002e0 d9 63 27 3e ee bc 70 3e a3 e1 4a 3f 71 20 3d 3e
       0.16346683 0.23509571 0.79250544 0.18469407
0002f0 8c f0 cd be 9c 67 8e 3e 1d 99 b6 3e 48 6c df bd
       -0.40222585 0.27813423 0.3566369 -0.10909325
000300 3e ac c0 bd ce 93 3b 3e 27 9c 38 3d e0 3d 1b 3e
       -0.094078526 0.18318102 0.045070793 0.15160322
000310 62 9a bf 3e f0 76 38 3f 50 15 c0 3d e6 66 4a 3f
       0.37422472 0.72056484 0.09379065 0.7906326
000320 6f ec 16 40 c5 0c 38 3e a1 36 dd 3b e8 1c c4 be
       2.3581808 0.17973621 0.006750897 -0.38303304
000330 10 66 76 3f 35 2f 47 bf 80 8b d1 bf 09 1f c1 3e
       0.96249485 -0.7780641 -1.6370697 0.3771899
000340 1c 4a b3 3f 07 0b 8a 3d 52 da 31 be be b5 d1 3d
       1.4006991 0.067403845 -0.17368439 0.10239743
000350 ba 50 51 3e b6 0f 18 3f 31 08 a2 bd e8 4d 45 3f
       0.20440951 0.59398973 -0.07911719 0.77072
000360 c0 9a 82 bc 22 ed 11 3e d9 ad 17 3f 7c e5 67 3d
       -0.015942931 0.14250615 0.59249645 0.056615338
000370 7f 87 39 be 41 8f 32 38 df e5 54 3d ff 64 f4 3d
       -0.18118094 4.2571923e-05 0.051977035 0.11933326
000380 43 a7 0b 3d 86 99 6b 3c 90 90 a7 3d 4a 19 a2 bd
       0.03409506 0.014379865 0.0818187 -0.0791498
000390 60 2b f2 bc a0 5b b8 3b 24 fa 20 bd e0 43 dc 3c
       -0.029561698 0.005626157 -0.039301053 0.026887834
0003a0 07 c7 3e bd cb 03 63 bd 2a 1a 82 3d 6e 10 db bd
       -0.046576526 -0.05542354 0.06352647 -0.10696493
0003b0 92 33 c9 bd 74 5e b7 bd d3 69 5e bd 44 b5 df 3d
       -0.098242894 -0.089535624 -0.05430014 0.109232455
0003c0 58 82 09 bd c1 7f 0d be 34 25 15 ba f5 8d f3 3d
       -0.03357157 -0.13818265 -0.00056894426 0.118923105
0003d0 d0 3c 36 bd 98 6a 71 3d a2 54 7b 3d 40 f0 95 3b
       -0.04449159 0.058939546 0.06136001 0.004575759
0003e0 d7 0c 02 be e0 c0 3b 3d 5f 20 5b be 04 0c 53 3e
       -0.1270021 0.045838237 -0.21399067 0.20610052
0003f0 10 1b 1d bc 7a 7e 09 be 61 6e 08 be b4 66 3d bd
       -0.009588972 -0.13427153 -0.13323356 -0.046240523

layer1.bias f4 [20]
000000 49 45 12 be 1e 04 28 3f d4 f8 37 3f 0b 43 f2 3e
       -0.14284243 0.6563128 0.71864057 0.47316775
000010 00 1d 2f 3f bd 37 48 3f 56 e1 bf 3e 91 28 4d be
       0.68403625 0.7821005 0.37476605 -0.20035006
000020 39 93 ed 3e be d1 36 3f 44 89 12 3f b7 78 6d be
       0.46401384 0.7141379 0.572407 -0.2319058
000030 bf a0 a2 3e 08 e1 f1 3e 65 9c 0d 3f c9 35 26 3f
       0.31763265 0.47241998 0.55316764 0.6492582
000040 ef 8c 09 3f 38 49 64 3f 59 b4 ae 3e f8 73 a9 3e
       0.5373067 0.8917422 0.3412197 0.3309629

layer2.weight f4 [4, 20]
000000 5b ff f5 bc 43 46 57 3f a8 ec 85 be da 94 1f 3f
       -0.03002899 0.84091586 -0.26157117 0.62336504
000010 c0 2c 79 3e d0 a4 73 bf 84 89 c4 bf 45 e1 c2 3c
       0.24333477 -0.9517336 -1.5354466 0.023789058
000020 ef d3 fd bf fc dc 9d 3e 4c 63 b4 bf 95 92 7a bd
       -1.9830302 0.3083266 -1.4092803 -0.061174948
000030 00 00 84 3f 38 d5 93 3f 82 8a dd bf 26 ab bb 3f
       1.03125 1.1549444 -1.7307894 1.4661605
000040 33 e5 14 c0 2e a3 81 3e 14 71 f4 3f ef 0a 8f 3f
       -2.3264892 0.2531981 1.9097009 1.1175212
000050 57 f3 da 3d 17 e6 c2 3f 3a 83 b5 3f 0c 3e e6 bf
       0.10690945 1.5226468 1.4180672 -1.7987685
000060 0e 25 1e c0 d9 6b ff 3f d9 af 3d bf 67 7d 57 bc
       -2.4710116 1.9954787 -0.7409645 -0.013152457
000070 37 34 01 c0 12 e2 b2 3f ea d7 ba bf bc e3 31 bd
       -2.018812 1.3975241 -1.4597142 -0.043430075
000080 a7 a0 00 c0 54 33 c3 3f 68 ca 7a bf 7e 75 a6 bf
       -2.0098054 1.5250039 -0.979651 -1.3004606
000090 d6 8a e7 be e8 2f e9 3f 88 b5 f5 bf 88 8b a9 bf
       -0.4522311 1.8217745 -1.9196024 -1.3245707
0000a0 e5 73 2a be 96 85 dc bf ec ea f1 bf c6 0a 88 3f
       -0.16645773 -1.7228267 -1.8899817 1.0628288
0000b0 8c f9 ac 3f 0f d0 30 c0 dc 98 10 3f fa d2 ab bc
       1.3513656 -2.762699 0.56483245 -0.020974625
0000c0 ad 28 a0 3f fa cd e9 bf 09 07 22 3e f0 07 67 be
       1.2512413 -1.8265984 0.15822996 -0.22561622
0000d0 56 4f 8f 3f 8f 06 f8 bf c2 2a a7 3d 85 7d 85 3f
       1.1196086 -1.9377002 0.08162452 1.042893
0000e0 5c 5c 3d be 7e ee 08 c0 74 b1 ae bf 23 0f 8d 3f
       -0.18492264 -2.1395564 -1.3647904 1.1020244
0000f0 4a 9c 6c be bf af 56 bf ab 7f 17 be 64 e7 99 bf
       -0.23106495 -0.8386192 -0.14794795 -1.202374
000100 cd 3c 6e bf ff e5 9a 3e d9 c5 8b 3f 73 81 58 be
       -0.93061525 0.30253598 1.0919753 -0.21143131
000110 17 1e c9 3f 26 1f a5 be be 5f bc 3f 63 b9 03 bd
       1.5712308 -0.32250327 1.4716718 -0.03215922
000120 c2 89 b5 bf 99 47 05 c0 87 7a a4 3f 57 1e 1b c0
       -1.4182665 -2.082495 1.2849892 -2.4237268
000130 b2 55 c7 3f a1 bd 96 3d ee ed 7c bf 0e 70 d4 bf
       1.5573027 0.073603876 -0.9880055 -1.6596696

layer2.bias f4 [4]
000000 01 a7 15 3d f8 de 41 be f4 e1 5a bd 88 23 19 be
       0.03653622 -0.18932712 -0.053438142 -0.1495496
