text/model/text_classifier_model.pth (torch, 5248 bytes, 4 tensors)

layer1.weight f4 [20, 32]
000000 44 cf 71 3f dd c8 90 bd ae 83 27 bf d0 a7 1c bf
       0.9445689 -0.07069562 -0.654353 -0.6119356
000010 5f c9 36 bf be 0a 80 be 95 2c 47 3f de 96 c0 3e
       -0.7140102 -0.25008196 0.778024 0.37615103
000020 66 1d 18 3f 86 9b 70 3f cf 6b 50 bf f5 0b 4b 3e
       0.5941986 0.9398731 -0.814145 0.1982878
000030 5b cd 03 3f d8 2e 2f 3d b9 23 a9 bf 49 c3 d7 3f
       0.5148522 0.042769283 -1.3214027 1.6856471
000040 f8 6e 21 3e ca 0b b2 3d 45 60 75 3e 6f 84 dd 3c
       0.15764987 0.08693655 0.23962505 0.027040688
000050 ef 3f 94 3d 9b 24 20 3f 55 52 25 3f d3 92 0b 3e
       0.07238757 0.62555856 0.64578754 0.13630228
000060 dc b1 06 bf 07 c5 27 3f b8 fa 46 3f 2b 68 4c bf
       -0.5261514 0.65535015 0.77726316 -0.7984645
000070 58 ff 84 bd c8 ce a1 3e fe ee 1d bd 7d 48 d8 3e
       -0.064940155 0.31603074 -0.038558 0.42242804
000080 32 e9 58 bf 64 f5 f5 3c d1 dd 54 3f fe 14 2f 3f
       -0.8473083 0.030024238 0.83150965 0.68391407
000090 60 ef 22 3f 2d 42 b3 3e ac 71 49 bf 2c 28 b0 3f
       0.6364651 0.35011426 -0.78689075 1.376226
0000a0 79 79 01 bf 8e 45 2c bf f0 04 4f 3f 25 fc 1a bf
       -0.5057598 -0.6729363 0.8086691 -0.6054099
0000b0 08 70 73 be e6 fe b3 3e 36 b3 a9 3f 78 95 c7 bf
       -0.23773205 0.3515541 1.3257816 -1.5592489
0000c0 b2 a8 cd 3e a0 e7 5c 3e ae 94 ea bd 9e db 95 3e
       0.40167767 0.21572733 -0.1145414 0.29269117
0000d0 cc db ac be 97 e8 17 bf ed 9b e1 be 06 9a 89 3e
       -0.33761442 -0.5933928 -0.44064274 0.26875323
0000e0 69 47 ba 3e c3 00 0d bf d3 7f 52 bf 31 a6 38 3f
       0.36382607 -0.5507929 -0.82226294 0.7212859
0000f0 95 a7 d8 3d db c8 aa 3e 9f a5 0c 3e 62 bf 09 bf
       0.10578839 0.33356366 0.13735054 -0.5380765
000100 9c ff 3d bf 2c ce 2a 3c e9 59 4d 3f c7 2e 25 3f
       -0.74218154 0.010425132 0.80215317 0.645245
000110 9c 34 51 3f 6f 9b 14 3f 72 86 68 bf ea 43 77 3f
       0.817209 0.5804967 -0.9083015 0.96588004
000120 37 6a 18 bf db 4b 24 bf c8 4b 88 3f cb f3 64 3e
       -0.5953707 -0.64178246 1.0648127 0.22358625
000130 d1 2e 01 bf 82 96 78 3e 45 de c2 3f a0 4b a9 bf
       -0.5046206 0.24276164 1.5224081 -1.3226204
000140 51 94 8d 3e 77 be 97 3c ea 25 3a be e9 54 8a 3e
       0.2765222 0.018523438 -0.18178526 0.27017906
000150 3c 0d 63 bd ce 2c 0d bf 41 ed ef be 61 cc 2f 3e
       -0.055432543 -0.5514649 -0.46860698 0.17167808
000160 8f bb 32 3f 65 d8 21 bf c8 99 49 bf 10 d1 61 3f
       0.6981744 -0.63220817 -0.78750277 0.8820963
000170 da b9 b6 3e cb 9b 0c 3d 2e f6 1b 3e fe 91 d4 be
       0.35688668 0.034328263 0.15230629 -0.41517633
000180 65 13 7c 3f a8 84 2f 3e 47 bc 0f bf dc d6 06 bf
       0.98467094 0.17140448 -0.56146663 -0.526716
000190 f0 35 0d bf 97 b1 78 be 16 35 4e 3f 95 be ac be
       -0.5516043 -0.24286495 0.8054975 -0.33739153
0001a0 11 2b c9 3e a2 e3 39 3f f9 76 1d bf 65 a9 92 3f
       0.3929067 0.72612965 -0.6150966 1.1457945
0001b0 7a 42 b1 3e 1a 9d 81 3e c0 e2 a4 bf 7d 10 ea 3f
       0.3462103 0.2531517 -1.2881699 1.8286282
0001c0 23 48 d4 3e 58 f7 60 3e 25 6d 71 3e 85 0a 54 3e
       0.41461286 0.21969354 0.23576792 0.20707138
0001d0 40 8e e8 3e b7 2f d8 3e c2 be 19 3f 43 7d d1 3d
       0.45421028 0.42223904 0.600567 0.1022897
0001e0 99 d4 93 be 21 ec 97 3e 86 df 38 3f 58 f0 07 bf
       -0.28873137 0.2967234 0.7221607 -0.5310111
0001f0 a6 ed c5 3d 2d bd d3 3e 52 53 ad 3d af cb 15 3f
       0.096644685 0.41355267 0.08463158 0.5851392
000200 f3 b7 65 3e 11 f6 94 bb 9c fd d8 be 96 f8 3d bf
       0.22433452 -0.004545935 -0.4238099 -0.7420744
000210 58 1b 16 bf f2 05 d9 be 2b 22 9b 3e 06 56 a4 3f
       -0.58635473 -0.42387348 0.30299506 1.2838752
000220 f1 08 19 3f d9 7e f1 be 1a 31 17 bf cc 2d da bf
       0.5977927 -0.4716709 -0.590593 -1.7045226
000230 5a dc 78 be 6a aa 3a 3e 28 93 60 bf aa 78 01 3f
       -0.24302807 0.1822907 -0.8772454 0.50574744
000240 90 fc 40 3e 03 cc 87 3e b3 5e 9f be 7c e8 32 3e
       0.18846345 0.26522836 -0.31126937 0.17471498
000250 2e 53 bf be 90 7e e0 3e 72 c2 d5 bd 4a ed 95 3e
       -0.3736815 0.4384656 -0.10437478 0.292826
000260 30 41 31 be 9c 70 c8 3e c4 57 1b 3f 7c cd 4e bf
       -0.17310023 0.39148414 0.60680795 -0.80782294
000270 58 06 2d 3e 49 b7 89 3e f1 2e 77 3d d8 db e2 3e
       0.16896951 0.26897648 0.0603475 0.44308352
000280 ab a1 ce 3d 10 a9 37 bc 73 f7 ab be a6 76 65 3e
       0.100894295 -0.011209741 -0.33587226 0.22408542
000290 c1 2d 3d 3e 2a ad d8 3e 96 3a 2c 3e f4 47 01 40
       0.18474485 0.42319614 0.16819224 2.0200167
0002a0 80 14 f8 3e 9c 40 b5 be 38 3a 9c 3e e2 e2 cb bf
       0.4845314 -0.35400856 0.30513167 -1.5928614
0002b0 03 26 d0 bd d2 b5 a1 3e 4e 4a 1c 3f f2 ae 21 bb
       -0.101635 0.3158403 0.6105088 -0.0024670926
0002c0 aa 82 f6 3c b3 32 4a 3e 35 1b f0 bd 70 c4 18 3e
       0.030091602 0.19745903 -0.11723939 0.14918685
0002d0 d0 9d 16 bf 51 3c 17 3f cb b9 3f be 5c 26 01 3e
       -0.5883455 0.5907641 -0.18723218 0.12612289
0002e0 bb bd 6c be 7f 95 04 3f f0 4e e4 3e 06 fd 07 3f
       -0.23119251 0.5179061 0.44591475 0.5312046
0002f0 40 d9 ba 3d 35 10 31 3e e5 5d f0 3d 99 06 92 3e
       0.091234684 0.17291339 0.11736659 0.2852066
000300 1c 00 19 be e0 f4 13 3c 2e 4a c5 3d a8 f3 79 3d
       -0.14941448 0.009030551 0.09633289 0.061023384
000310 a7 df d7 bd d8 38 bb 3c 48 d2 c2 3c a2 64 9e 3d
       -0.10540705 0.022854254 0.02378191 0.07734038
000320 80 5b a4 bb bd 5f dc bd 0a 48 ff 3d 0a c7 01 be
       -0.0050157905 -0.10760448 0.12464912 -0.12673584
000330 7d 73 04 3e 44 70 f0 bd 20 21 41 bd e0 43 b1 bb
       0.1293468 -0.11740163 -0.04715073 -0.0054097027
000340 92 e7 8c 3d 70 58 cb 3c a7 e2 25 3e c6 a1 f7 3d
       0.06880106 0.024822444 0.16199742 0.12091403
000350 d7 82 0e 3e 64 5f fd bd 4a 0c 2f be 3c c1 87 3d
       0.13917099 -0.1237171 -0.17094532 0.066286534
000360 e0 9e 95 3c 96 b7 a8 bd 36 2f 21 be 68 e2 98 3c
       0.018264234 -0.08238141 -0.15740666 0.018662646
000370 78 04 30 bd 6b af 29 be a3 1c 22 3e a0 00 10 be
       -0.04297301 -0.16570823 0.15831237 -0.14062738
000380 97 d9 e4 3e 63 1b 64 3e 2f 6e 4a be 5e 98 a8 be
       0.44697258 0.22276072 -0.19768594 -0.32928747
000390 9e 84 be be 58 16 bd be e5 29 0a 3f ed 25 ae bf
       -0.37210554 -0.3693111 0.53970176 -1.3605324
0003a0 d7 cc 2a 3f e4 fe 36 3f 85 ab 88 be 19 3e cc 3f
       0.6671881 0.7148268 -0.2669336 1.5956451
0003b0 ec c4 3c 3e 70 c3 9e 3e 15 3a 6b bf 05 5f 9d 3f
       0.18434495 0.31008482 -0.918855 1.2294623
0003c0 91 6e 1c 3f 0b 32 29 3e ec 6d d6 3e 09 59 b6 3e
       0.6110621 0.16522996 0.4188074 0.35614803
0003d0 5f 5c 33 3f 4b ca 27 3f 0b 23 96 3e d8 bc a5 3d
       0.7006282 0.6554305 0.2932361 0.0809266
0003e0 a5 9d 46 3d 7d 69 aa 3e 71 2b 38 3f a7 06 08 bf
       0.048490185 0.33283606 0.71941286 -0.5313515
0003f0 ef 3f e4 bb 6b d7 ec 3e 9d 13 0d 3e 09 59 cd 3e
       -0.0069656293 0.462581 0.13777013 0.4010699

layer1.bias f4 [20]
000000 a8 01 d6 3e 36 50 1d 3f 30 6f 0d 3f 2f 11 e2 3e
       0.4179814 0.6145052 0.55247784 0.44153735
000010 54 98 d1 3e d2 fb dc 3e ae 43 27 be 01 23 14 3f
       0.4093653 0.43160874 -0.16334412 0.5786591
000020 5c 81 00 be d0 14 42 3f 05 c9 0b 3f f5 36 a7 3e
       -0.12549347 0.7581301 0.54603606 0.32659116
000030 a3 2e 12 3f 9f 91 12 3f 2f 76 be 3e c6 a0 b6 3e
       0.5710241 0.5725345 0.37199542 0.35669535
000040 39 a0 7e be 28 a3 df 3e 48 84 09 be f6 b5 06 3f
       -0.24865808 0.43679166 -0.13429368 0.526214

layer2.weight f4 [4, 20]
000000 08 07 0b 3f c5 af fe bf 5d 79 e4 bf 23 44 81 3f
       0.54307604 -1.9897391 -1.7849537 1.0098919
000010 47 dd a2 bf 9a 7f cc bf 2c 6a 8d 3d 73 92 49 3f
       -1.2723778 -1.5976441 0.06905016 0.7873909
000020 ec f4 19 3e 18 f8 8b be 98 11 97 3f 1e df b2 3e
       0.15034837 -0.27337718 1.1802244 0.3493585
000030 cb a4 f1 3c 16 6e fd bf 54 bc 84 3f 4c 02 d6 be
       0.029497525 -1.979922 1.0369973 -0.41798627
000040 3d ce 88 3d 94 9c 29 bf 88 ce 09 be fa 68 68 3f
       0.06679962 -0.66254544 -0.13457692 0.9078518
000050 8a c8 8f bf f3 33 ef 3e ab 16 7c 3f 52 73 d2 be
       -1.1233075 0.46719322 0.9847209 -0.41103607
000060 9b ba ca bf 45 13 78 bf c2 bd 16 be b9 13 82 bc
       -1.5838197 -0.969044 -0.14720824 -0.015878545
000070 66 ed 1c 3e 05 b1 b9 3f ba 9b 97 b9 56 b3 6d bf
       0.15324935 1.4507147 -0.0002891699 -0.9285177
000080 a6 74 47 c0 74 8f 1a 3f cc 2e 01 3f 07 de 01 c0
       -3.1164947 0.6037514 0.5046203 -2.0291765
000090 6e 64 c3 bd e1 67 cf bf 46 cc 72 be ab 22 88 3f
       -0.0954064 -1.6203576 -0.23710737 1.063558
0000a0 c0 3c 0d 3f 58 7d 47 bf 6a 9f a3 bf 65 e3 fd 3e
       0.5517082 -0.77925634 -1.2783024 0.4958755
0000b0 90 33 b5 3f ac c1 08 3f fa 5f 24 be 82 e0 f3 be
       1.4156361 0.5342052 -0.16052237 -0.47632223
0000c0 8c 4c f2 3d 62 95 0f c0 99 4f 2e bf ef 78 8a 3e
       0.118310064 -2.2434926 -0.68090206 0.2704539
0000d0 c8 10 c1 3f d5 00 8b bf 46 fd af bf a5 f0 2d 3f
       1.5083246 -1.0859629 -1.3749168 0.6794532
0000e0 9f fb 2d be 45 b2 6e 3f 88 69 e1 bd bd df a1 bf
       -0.16990517 0.9324077 -0.110064566 -1.2646405
0000f0 55 bf 88 bf b5 7e ad 3f d6 90 84 3f 29 9c f1 bf
       -1.068339 1.3554293 1.03567 -1.8875781
000100 2f 20 b6 be a5 3b 57 3f f4 e8 14 3e 67 8e 0a c0
       -0.3557143 0.84075385 0.1454199 -2.1649415
000110 7a c7 ff bd ef 2c 07 bf fe d6 b1 bf 42 aa 0f 3f
       -0.12489219 -0.5280294 -1.3893735 0.5611917
000120 3c f6 4d bf d7 44 a1 3f fc 93 8c be a4 6d a6 3e
       -0.8045385 1.2599133 -0.27456653 0.32505524
000130 d5 1c fa bd 1b e1 f2 3e ea 3e d0 3c 53 5a c9 bf
       -0.122125305 0.47437367 0.025420625 -1.573069

layer2.bias f4 [4]
000000 69 04 bc bd 54 2e f9 3d 30 96 73 3d 98 3f 41 bd
       -0.09180529 0.121670395 0.0594694 -0.04717979
