text/model/TextClassifier.pth (torch, 5192 bytes, 4 tensors)

layer1.weight f4 [20, 32]
-0.033163503 -0.15888217 0.10686423 0.088868335 0.081129655 -0.0019861907 0.000842914 -0.15125446
-0.12619296 -0.015251011 0.05524777 -0.04670252 -0.06995972 -0.110165454 0.022596857 0.08633957
-0.15594892 0.081121355 -0.16955751 -0.1684267 0.026541278 -0.08863334 -0.014349043 0.081560805
-0.0129125 -0.02416131 -0.030658929 -0.11587252 -0.13492832 0.09616034 0.09810735 -0.13875322
-0.5184066 0.4937693 0.38658565 0.6295707 0.22238275 0.7155648 0.94685906 0.9497556
-1.5018897 0.59394014 0.7375898 0.74235725 0.9850747 0.1864457 1.6346922 0.44461542
1.2805107 0.5683045 -1.2855914 0.692059 0.4228844 0.8994832 -1.030198 1.6873913
0.52278405 0.5509909 1.0526941 0.34475008 -0.33650735 0.60052764 0.6266669 0.2150482
0.3830192 0.19815245 0.22898664 0.13643627 0.06626663 -0.122831896 -0.1616652 -0.3103909
-1.570516 0.31474906 0.51057166 0.61712706 -0.25324515 1.2469753 1.8240954 0.112173855
-0.7287755 0.37886932 0.9150244 0.42028695 0.21879087 -0.31960782 0.62384236 -0.53063214
0.19115698 0.25375575 0.20718871 0.2527168 0.5667145 0.2993118 0.29284522 0.034720976
0.48168182 0.040425356 0.08330919 0.045918647 0.043323133 -0.50939155 -0.68343914 -0.3301658
0.3723257 0.050769947 -0.08719826 -0.23711693 -0.39136907 0.9592412 0.009366802 -0.00085854635
-0.5872749 0.19252214 0.7977438 0.012206523 0.13220195 0.4780166 0.55429304 0.35409608
-0.00047590904 0.21455452 -0.19642691 -0.18154581 0.73437774 0.27602923 0.11678418 -0.07719278
0.26562238 0.1513526 0.1976231 0.16220684 -0.017928438 0.55966496 0.54466105 0.16958997
-1.5810847 0.32653698 0.5953961 0.7405494 0.18772699 1.0540403 1.8421626 0.13246606
-0.021421423 0.36542276 0.044018116 0.39616352 0.2143719 -0.26697537 0.07006344 -0.08600901
0.40186802 0.17155813 0.04330526 0.4065335 0.47494116 0.4719763 0.39357325 -0.015394003
1.0947762 0.3038913 0.0010342825 0.15900955 0.04787037 -0.9569907 -0.6483201 -0.65078676
-1.2973361 0.31421033 0.055940714 0.31616408 -0.65155184 0.95338726 1.394443 0.24989364
-1.3511621 0.13068363 1.416967 0.272362 0.17423582 -0.42829484 1.2549953 -0.803219
0.28552482 0.14810577 -0.044246193 0.46496737 0.4949675 0.23869713 0.16829681 0.15594442
-0.98489565 0.15074079 0.22876409 0.16601178 0.13430023 0.82231003 0.9825372 1.3562722
0.37910333 0.25540406 0.2318467 0.6096168 1.3489299 -0.96781397 0.40175965 0.040127102
1.7562968 0.26289812 -1.4762329 0.32082778 0.22180887 0.6509874 -1.088013 1.1386416
0.09767515 0.15403824 0.62781644 0.0005306994 -0.4658606 0.124755315 0.28954005 0.08007401
0.13316655 0.11445341 0.014968935 0.2266264 0.28989285 -0.19758072 -0.42554843 0.15614809
1.4357883 0.032902386 -0.19944283 -0.37365648 0.21609987 -0.6953214 -1.5998253 0.28324518
0.39850682 0.12555867 0.40125647 0.06565013 0.14453024 0.4363308 0.31944302 0.21488455
-0.020066867 0.28518516 0.43915883 -0.030085463 -0.26763698 0.12534772 0.06397517 0.24233621
00000000: 74d6 07bd 02b2 22be a2db da3d 9a00 b63d
00000010: 4e27 a63d c02a 02bb 00f7 5c3a 73e2 1abe
00000020: ba38 01be 60df 79bc 7c4b 623d 244b 3fbd
00000030: 0b47 8fbd 6d9e e1bd 0b1d b93c cdd2 b03d
00000040: 13b1 1fbe f422 a63d 7ca0 2dbe 0d78 2cbe
00000050: 186d d93c 6685 b5bd 4018 6bbc 5a09 a73d
00000060: f38e 53bc f1ed c5bc 6f28 fbbc 924e edbd
00000070: a62a 0abe b6ef c43d 82ec c83d 5315 0ebe
00000080: 4cb6 04bf 54cf fc3e 8eee c53e 8c2b 213f
00000090: 4eb8 633e 412f 373f 5b65 723f 2f23 733f
000000a0: ec3d c0bf 760c 183f afd2 3c3f 200b 3e3f
000000b0: db2d 7c3f 9feb 3e3e 983d d13f a2a4 e33e
000000c0: c6e7 a33f 677c 113f 428e a4bf c72a 313f
000000d0: 4e84 d83e 8844 663f 87dd 83bf 70fc d73f
000000e0: 2dd5 053f bd0d 0d3f aebe 863f 1583 b03e
000000f0: b14a acbe 2ebc 193f 3e6d 203f 9835 5c3e
00000100: 181b c43e 7ae8 4a3e 797b 6a3e f3b5 0b3e
00000110: cdb6 873d 4a8f fbbd 908b 25be 8eeb 9ebe
00000120: ab06 c9bf ca26 a13e d3b4 023f 0afc 1d3f
00000130: 59a9 81be e39c 9f3f f57b e93f 68bb e53d
00000140: 0891 3abf 29fb c13e 0a3f 6a3f da2f d73e
00000150: b70a 603e a3a3 a3be 22b4 1f3f 82d7 07bf
00000160: a8be 433e 46ec 813e 4729 543e 1964 813e
00000170: 3414 113f 653f 993e cfef 953e 9537 0e3d
00000180: 009f f63e 0f95 253d 029e aa3d 3115 3c3d
00000190: 9973 313d 7c67 02bf def5 2ebf 7e0b a9be
000001a0: 79a1 be3e 26f4 4f3d 0095 b2bd c8ce 72be
000001b0: 8761 c8be d590 753f 3777 193c 1210 61ba
000001c0: a657 16bf 8624 453e f038 4c3f defd 473c
000001d0: f35f 073e 97be f43e 26e6 0d3f 154c b53e
000001e0: 6e83 f9b9 2eb4 5b3e 2324 49be 25e7 39be
000001f0: 2e00 3c3f b453 8d3e 8b2c ef3d 4017 9ebd
00000200: a8ff 873e 2dfc 1a3e b65d 4a3e 8d19 263e
00000210: a9de 92bc 3446 0f3f e86e 0b3f fea8 2d3e
00000220: fc60 cabf db2f a73e e16b 183f a594 3d3f
00000230: 813b 403e cbea 863f fccb eb3f 2fa5 073e
00000240: fb7b afbc b118 bb3e 574c 343d f2d5 ca3e
00000250: 4f84 5b3e ffb0 88be 6c7d 8f3d 7e25 b0bd
00000260: a5c1 cd3e efac 2f3e db60 313d 2925 d03e
00000270: 7d2b f33e e1a6 f13e 6f82 c93e 2137 7cbc
00000280: a021 8c3f a497 9b3e c390 873a 66d3 223e
00000290: b913 443d 58fd 74bf 4ef8 25bf f699 26bf
000002a0: 1c0f a6bf 2de0 a03e 1722 653d 42e0 a13e
000002b0: 1acc 26bf 3011 743f 1c7d b23f 1ee4 7f3e
000002c0: e1f2 acbf eed1 053e 2d5f b53f 0873 8b3e
000002d0: e06a 323e 7649 dbbe b0a3 a03f c39f 4dbf
000002e0: 4f30 923e 0aa9 173e 7f3b 35bd 3410 ee3e
000002f0: 616c fd3e 056d 743e 0056 2c3e e5af 1f3e
00000300: 1f22 7cbf cb5b 1a3e 2241 6a3e fefe 293e
00000310: 0086 093e e982 523f 8f87 7b3f 549a ad3f
00000320: d519 c23e 52c4 823e 3969 6d3e d90f 1c3f
00000330: bca9 ac3f a8c2 77bf 71b3 cd3e 515c 243d
00000340: 55ce e03f 959a 863e 33f5 bcbf 8a43 a43e
00000350: dd21 633e 1ca7 263f 0344 8bbf 02bf 913f
00000360: e909 c83d 33bc 1d3e 94b8 203f a21e 0b3a
00000370: 4885 eebe b77f ff3d 983e 943e d8fd a33d
00000380: d05c 083e 8d66 ea3d 4440 753c c010 683e
00000390: d66c 943e 9a52 4abe 7ce1 d9be 49e5 1f3e
000003a0: e9c7 b73f a7c4 063d be3a 4cbe e74f bfbe
000003b0: 4949 5d3e 9500 32bf 13c7 ccbf 8305 913e
000003c0: 1609 cc3e 7492 003e 7d71 cd3e 9373 863d
000003d0: bcff 133e c066 df3e 098e a33e b20a 5c3e
000003e0: 4563 a4bc ca03 923e 6dd9 e03e ca75 f6bc
000003f0: b707 89be 275b 003e 6a05 833d fc26 783e

layer1.bias f4 [20]
-0.16808383 0.8959812 0.6913023 0.33181587 0.76997554 0.62135136 0.6749055 0.14679316
0.6615652 0.23212098 0.36400926 0.35177165 1.3130091 0.5844903 0.6829757 0.45210525
0.3551619 -0.23044659 0.52715147 0.58075505
00000000: 2b1e 2cbe 065f 653f 30f9 303f c5e3 a93e
00000010: 1e1d 453f e210 1f3f 9bc6 2c3f f250 163e
00000020: 565c 293f 1fb1 6d3e 6c5f ba3e 6a1b b43e
00000030: af10 a83f 28a1 153f 7fd7 2e3f 577a e73e
00000040: c8d7 b53e 31fa 6bbe 66f3 063f 5dac 143f

layer2.weight f4 [4, 20]
-0.10222794 -0.10274301 1.2440276 0.8549479 1.0032061 1.2816098 -1.2747701 -1.0515966
-1.3011416 -0.4570279 -1.8028011 -0.7022857 -1.2910895 -1.094213 1.16785 1.2968812
0.5274195 0.10971187 -1.419606 0.29809344 -0.145344 1.6038566 0.30718124 -1.104609
0.79333645 -0.05315006 0.95665884 -1.2134527 1.1783632 -1.2556831 -0.6972857 -1.2912128
-8.965661 0.98749495 0.8192878 -1.0257003 -1.3320732 0.1205737 0.9173802 1.2495389
-0.24509788 -3.299617 -1.1020226 0.13077417 -1.6003577 0.10831721 -1.7523196 0.830569
-2.138879 0.8865575 -0.13620609 0.46084788 4.22294 -1.6661346 -1.9346722 0.38506338
0.49376413 0.121788494 -1.7108048 -1.4224195 0.09760162 -0.028765779 -1.3970851 0.03426909
-0.9915617 -1.2323138 0.89715534 0.85570025 0.75977993 0.17641489 1.521452 1.1536343
-0.5601554 0.953309 -1.5294515 -1.7819171 -0.5550227 0.049292736 0.8389509 -0.5628354
00000000: e25c d1bd ed6a d2bd 4c3c 9f3f dedd 5a3f
00000010: 0f69 803f ca0b a43f ab2b a3bf b89a 86bf
00000020: cf8b a6bf 90ff e9be 30c2 e6bf ffc8 33bf
00000030: 6c42 a5bf 2c0f 8cbf 1c7c 953f 3400 a63f
00000040: f704 073f 9eb0 e03d a6b5 b5bf b49f 983e
00000050: 0fd5 14be 2c4b cd3f dc46 9d3e d463 8dbf
00000060: 1918 4b3f e1b3 59bd 98e7 743f 6b52 9bbf
00000070: 9bd4 963f 39ba a0bf 5181 32bf 7646 a5bf
00000080: 5973 0fc1 78cc 7c3f d8bc 513f 264a 83bf
00000090: 6081 aabf 58ef f63d 6ed9 6a3f e4f0 9f3f
000000a0: f0fa 7abe ed2c 53c0 140f 8dbf aae9 053e
000000b0: 85d8 ccbf 6ad5 dd3d 024c e0bf 2ca0 543f
000000c0: 65e3 08c0 6ff5 623f 9c79 0bbe 41f4 eb3e
000000d0: 5322 8740 e643 d5bf 57a3 f7bf 0727 c53e
000000e0: a7ce fc3e 3f6c f93d a7fb dabf d811 b6bf
000000f0: 5ce3 c73d 36a6 ebbc afd3 b2bf bf5d 0c3d
00000100: fdd6 7dbf 75bc 9dbf f9ab 653f 2c0f 5b3f
00000110: f080 423f 1ba6 343e f0be c23f 4aaa 933f
00000120: 5866 0fbf 0f0c 743f 11c5 c3bf dc15 e4bf
00000130: f815 0ebf 2ee7 493d 7cc5 563f fb15 10bf

layer2.bias f4 [4]
0.049142398 -0.041548923 -0.096658066 0.028613543
00000000: 8a49 493d 342f 2abd aaf4 c5bd f366 ea3c
