text/model/text_classifier_model.pth (torch, 5248 bytes, 4 tensors)

layer1.weight f4 [20, 32]
-0.099987455 -0.052913323 -0.08933945 -0.03137441 0.053622846 -0.13517559 0.15969048 -0.10238245
0.07129899 -0.04850942 0.03807214 0.033323664 0.025144517 -0.024851397 -0.12899195 0.13342117
-0.1544625 0.02065 -0.0604095 -0.103116244 0.08572669 -0.06616276 0.0025307983 0.11174433
0.10015036 0.15389986 0.14992459 -0.115736276 0.08300646 -0.15603487 -0.033705845 -0.01860632
-0.29273966 0.17679158 0.62874365 0.6087234 0.87137896 0.36201432 -0.20204641 1.7634962
0.036195043 -0.6094301 0.87232715 -1.418167 -0.21232513 0.40443513 0.9880742 -0.6930756
0.14007756 0.36466384 -0.12318002 0.33430916 -0.577685 0.17046444 -0.41628048 0.10017629
0.28681958 0.26452932 0.31504723 0.5028796 0.25279513 0.29990184 0.15668282 0.23609813
0.8703172 0.15280879 -0.68717086 -0.7915708 -0.5560472 -0.25023353 0.8077442 0.76971847
0.49528873 0.9332744 -0.7914376 -0.25940067 0.43810126 0.10890386 -1.2104735 1.6510822
0.13059953 0.14109305 0.4486072 0.13706306 -0.060113393 0.70077825 0.4378199 0.19753233
-0.52728707 0.5408209 0.79394263 -0.9709174 0.02860546 0.36199751 0.07005515 0.32463446
-0.33753735 0.1941321 0.7890472 0.27538833 0.634104 -0.37361044 -0.2770434 -2.186087
-0.4641812 0.09541014 0.42192346 1.9544109 -0.23487134 0.20912258 0.7863925 -0.7135271
0.6134255 0.3469203 0.17991088 0.20271134 0.64954734 -0.16068558 -0.48422304 0.14531942
0.42818996 -0.42280704 -0.52485037 0.2195314 0.21555586 0.5475276 0.22261605 -0.24782535
-0.05419126 0.03708124 -0.0010404736 -0.06851261 -0.06293009 -0.028652102 0.023273885 0.02601032
0.049154222 0.16810046 -0.048539937 -0.10315125 0.17010634 -0.12806877 -0.06410675 0.052172124
-0.042535573 0.015905648 -0.16616942 0.091856554 0.013894886 -0.09257865 -0.014937162 -0.08582493
0.11035411 0.16061918 0.07349719 -0.01954636 -0.03032291 -0.12965927 -0.05112402 -0.095992774
0.17348938 -0.004697072 -0.166221 -0.02193131 -0.024720848 -0.13469842 0.07676749 -1.520669
-0.10652396 0.57532054 -0.057239298 1.5381632 0.534066 0.23240407 -0.16599478 0.5029994
0.33091322 0.004965227 0.3749933 0.2900075 0.4298681 -0.23489267 0.54402506 0.20862177
0.13978715 -0.029409483 -0.20391595 -0.22436172 -0.08451656 0.4278861 0.12466222 -0.32880038
-0.2082176 0.08588378 0.56146336 0.32185605 0.33880502 -0.13982308 -0.25776505 -1.3953882
-0.1156588 0.535823 0.50434977 1.6212095 0.38876164 0.00542925 0.8280475 -0.43834955
0.35850808 0.14295349 0.34261653 0.093020596 0.6695478 -0.3801568 0.1340525 0.06668562
0.32028064 -0.39522746 -0.37978926 0.2406715 0.122131966 0.24209622 0.17082831 -0.10835682
-0.9323932 0.029822836 0.86541855 0.86533135 1.1255547 0.43535548 -0.7133447 0.0058554844
-0.45298943 -0.9818435 1.0692436 0.75517625 -0.5043405 0.26855683 1.6407039 -1.7301135
0.16169241 0.27354404 -0.27569115 0.09605023 0.18223539 -0.45185068 -0.698215 0.20344421
0.65899813 -0.38286483 -0.7174473 0.918522 0.251495 0.26847544 0.22016512 -0.5968876
00000000: 39c6 ccbd a4bb 58bd 9af7 b6bd 7482 00bd
00000010: a1a3 5b3d 786b 0abe e785 233e e4ad d1bd
00000020: 3405 923d d0b1 46bd 88f1 1b3d 657e 083d
00000030: e0fb cd3c 2895 cbbc 7716 04be 8f9f 083e
00000040: 6b2b 1ebe 302a a93c f46f 77bd 9c2e d3bd
00000050: 7a91 af3d 5780 87bd c0db 253b 36da e43d
00000060: a21b cd3d ed97 1d3e d585 193e 2407 edbd
00000070: 4aff a93d 9bc7 1fbe 240f 0abd 486c 98bc
00000080: f9e1 95be da08 353e 58f5 203f 4cd5 1b3f
00000090: b112 5f3f f159 b93e 41e5 4ebe 3eba e13f
000000a0: 4141 143d 9c03 1cbf d550 5f3f 7f86 b5bf
000000b0: c26b 59be 1f12 cf3e 6ef2 7c3f 676d 31bf
000000c0: 7e70 0f3e 38b5 ba3e ce45 fcbd 922a ab3e
000000d0: 2ae3 13bf 3b8e 2e3e b722 d5be 3a29 cd3d
000000e0: 04da 923e 6370 873e df4d a13e b8bc 003f
000000f0: 5d6e 813e bc8c 993e 7671 203e b5c3 713e
00000100: 1ccd 5e3f e879 1c3e 6eea 2fbf 62a4 4abf
00000110: 1c59 0ebf 9c1e 80be 53c8 4e3f 450c 453f
00000120: 7c96 fd3e 12eb 6e3f a89b 4abf 2ad0 84be
00000130: cf4e e03e fd08 df3d ccf0 9abf a956 d33f
00000140: e2bb 053e b27a 103e d8af e53e 425a 0c3e
00000150: 7639 76bd 3466 333f ee29 e03e ea45 4a3e
00000160: 49fc 06bf 3d73 0a3f d33f 4b3f 0b8e 78bf
00000170: ff55 ea3c bd57 b93e 1379 8f3d 7d36 a63e
00000180: b2d1 acbe 91ca 463e fffe 493f b3ff 8c3e
00000190: a454 223f de49 bfbe a2d8 8dbe d9e8 0bc0
000001a0: 29a9 edbe 6466 c33d 5a06 d83e 232a fa3f
000001b0: 1d82 70be 3b24 563e 0551 493f b6a9 36bf
000001c0: 7409 1d3f 8a9f b13e 8f3a 383e 9093 4f3e
000001d0: bc48 263f c38a 24be 15ec f7be 9dce 143e
000001e0: b73b db3e 2a7a d8be 985c 06bf d7cc 603e
000001f0: adba 5c3e c52a 0c3f 76f5 633e eec5 7dbe
00000200: a8f7 5dbd 80e2 173d 8060 88ba 5750 8cbd
00000210: 7ee1 80bd d0b7 eabc e0a8 be3c 9813 d53c
00000220: f055 493d 8722 2c3e d0d1 46bd f640 d3bd
00000230: 5b30 2e3e 7624 03be 664a 83bd 70b2 553d
00000240: c839 2ebd 904c 823c 5128 2abe 4a1f bc3d
00000250: 60a7 633c e099 bdbd 00bb 74bc fbc4 afbd
00000260: 5601 e23d 5b79 243e b285 963d b01f a0bc
00000270: c067 f8bc 66c5 04be 6c67 51bd dc97 c4bd
00000280: 33a7 313e e5e9 99bb d635 2abe 4aa9 b3bc
00000290: 6083 cabc 62ee 09be 4638 9d3d 48a5 c2bf
000002a0: 3c29 dabd 3548 133f c173 6abd 88e2 c43f
000002b0: 8db8 083f 55fb 6d3e 89fa 29be 92c4 003f
000002c0: 756d a93e 58b3 a23b 1fff bf3e dd7b 943e
000002d0: ac17 dc3e b487 70be 3a45 0b3f f2a0 553e
000002e0: 5d24 0f3e 28ec f0bc 58cf 50be 14bf 65be
000002f0: 0517 adbd e313 db3e e84e ff3d 8658 a8be
00000300: ff36 55be d6e3 af3d 10bc 0f3f 51ca a43e
00000310: da77 ad3e c82d 0fbe c8f9 83be 159c b2bf
00000320: 85de ecbd b22b 093f 111d 013f cb83 cf3f
00000330: c40b c73e dae7 b13b ecfa 533f 5a6f e0be
00000340: 5f8e b73e 6662 123e 6f6b af3e 9581 be3d
00000350: 7c67 2b3f e9a3 c2be 0f45 093e 7892 883d
00000360: d3fb a33e 415b cabe bd73 c2be 9772 763e
00000370: 5320 fa3d 12e8 773e 9eed 2e3e 2eea ddbd
00000380: 52b1 6ebf 054f f43c 128c 5d3f 5b86 5d3f
00000390: 2d12 903f eae6 de3e c29d 36bf 5ddf bf3b
000003a0: 3bee e7be 185a 7bbf f9dc 883f 3b53 413f
000003b0: 761c 01bf 4880 893e 9602 d23f 5c74 ddbf
000003c0: b292 253e f70d 8c3e 6427 8dbe fcb5 c43d
000003d0: ea9b 3a3e f958 e7be 38be 32bf ae53 503e
000003e0: 1ab4 283f dc06 c4be a0aa 37bf 4224 6b3f
000003f0: f4c3 803e 9d75 893e f772 613e a0cd 18bf

layer1.bias f4 [20]
-0.17547117 0.6492014 0.49009886 0.7121073 -0.15391019 0.3864727 0.53723884 0.53137606
0.5928134 -0.20680247 -0.25874084 0.38075933 -0.16325866 0.6063318 -0.21838889 0.55713034
0.47252107 0.6750376 0.39326975 0.6141519
00000000: b7ae 33be 1032 263f 3dee fa3e aa4c 363f
00000010: a29a 1dbe c0df c53e 7c88 093f 4308 083f
00000020: 9ec2 173f 07c4 53be ae79 84be e3f2 c23e
00000030: 472d 27be 9038 1b3f 56a1 5fbe 18a0 0e3f
00000040: 48ee f13e 44cf 2c3f a75a c93e 0f39 1d3f

layer2.weight f4 [4, 20]
0.087090164 -1.88496 0.37620738 0.2762636 -0.07386935 0.9557924 0.27589077 -1.3005546
-1.9588604 -0.089669235 -0.110185064 0.50647545 -0.16519605 0.42548144 -0.16347134 -1.0340749
0.89618057 -2.7097445 0.85020864 1.1979963 -0.01702587 -0.32575744 -1.434423 1.3680848
0.20642504 0.2931789 0.8503887 0.91489327 -0.36856467 0.0034574117 -0.05354125 -1.5545537
-0.07214019 -2.2317743 0.048572816 -1.3301003 0.93557423 -0.050864525 -0.02189732 -1.0283551
-0.26340452 0.28884673 0.9403044 -2.2376988 0.055268615 -1.2499663 -1.7141646 -1.6587447
0.2824186 -0.042712636 0.019122455 0.934631 0.0970681 1.2040678 -0.03418258 0.83748317
-1.5405002 -1.2985914 0.5689329 0.49173352 -0.11742308 1.0863836 -0.9211558 -0.96715236
0.060246766 -1.6108555 -0.6371175 0.6793595 0.95632 -0.13609053 -0.22139193 -0.45948336
0.009000853 -1.0590088 -0.12906732 0.8598723 -1.9328656 1.6559696 -1.8460244 -1.8911813
00000000: 545c b23d 5f46 f1bf 419e c03e 6c72 8d3e
00000010: d048 97bd d0ae 743f 8e41 8d3e 9378 a6bf
00000020: f0bb fabf 81a4 b7bd b5a8 e1bd 60a8 013f
00000030: 2729 29be b4d8 d93e 0865 27be 915c 84bf
00000040: 176c 653f 746c 2dc0 46a7 593f f157 993f
00000050: d679 8bbc aec9 a6be 2c9b b7bf 671d af3f
00000060: 1661 533e 8b1b 963e 13b3 593f 7236 6a3f
00000070: 82b4 bcbe be95 623b 124e 5bbd 9efb c6bf
00000080: 3cbe 93bd 64d5 0ec0 4af4 463d ba40 aabf
00000090: cb81 6f3f 5257 50bd 0262 b3bc 24a1 83bf
000000a0: f5dc 86be b8e3 933e cab7 703f 7536 0fc0
000000b0: 5861 623d e5fe 9fbf bf69 dbbf bf51 d4bf
000000c0: 2c99 903e 72f3 2ebd b2a6 9c3c fa43 6f3f
000000d0: a4cb c63d e51e 9a3f 0803 0cbd 4c65 563f
000000e0: 1c2f c5bf 3e38 a6bf 96a5 113f 7fc4 fb3e
000000f0: 837b f0bd 9e0e 8b3f ded0 6bbf 4c97 77bf
00000100: 50c5 763d 8330 cebf 221a 23bf 81ea 2d3f
00000110: 63d1 743f 515b 0bbe 91b4 62be 6741 ebbe
00000120: 5078 133c 9a8d 87bf 392a 04be 9720 5c3f
00000130: 2468 f7bf d0f6 d33f 874a ecbf 3b12 f2bf

layer2.bias f4 [4]
-0.06603295 0.1111505 0.08923005 0.21282056
00000000: 493c 87bd e0a2 e33d 3fbe b63d a2ed 593e
