text/model/text_classifier_model.pth (torch, 5248 bytes, 4 tensors)

layer1.weight f4 [20, 32]
00000000: d749 cebd 8949 94bd 6478 5e3d 0087 483c
00000010: 3637 603d 6f75 9ebd 8827 af3c 2c53 f2bd
00000020: ad9b e1bd 4097 5fbc 10c7 343c 6f46 a13d
00000030: 3036 343d e55b 2b3e e41f 34be b066 4a3c
00000040: 0e9d 7b3d f6ad 873d 02b5 953d f870 adbd
00000050: b86e e5bc 8471 09be 0bdd 023e 7512 0b3e
00000060: 7057 5b3c 3635 de3d ff62 acbd 713c 333e
00000070: 9347 aabd 5ec5 adbd d895 883d 86c5 f13d
00000080: c1b9 c23d 3edb 233e 9442 d4be 513f 3f3e
00000090: 9f9a 093e 4f4a c63e 29fd 5f3e 5b37 e43f
000000a0: 3334 123e 1068 d0be 1627 e13d 63d1 edbf
000000b0: ed54 59bd c1c6 a43e 2fc4 b93d 3dad ea3c
000000c0: 5d85 3bbd 13ab 743e 9d16 f9bd 1ff5 913e
000000d0: 7f32 e9be 4449 7a3d 51e4 4cbe ba19 78bd
000000e0: 195c e1bb 7820 a63e 747c 2dbe d8ac 113f
000000f0: 4396 1c3e 7134 813e 2ef7 2d3e e162 553e
00000100: b97b 1fbe 3609 0ebd cce5 fb3e 3bc1 c13e
00000110: 9618 a33e b6e7 a6be 717b cabd bb7f d9bf
00000120: cdaf 1cbe 94f0 223f 44d5 093f 4662 1040
00000130: 9221 c73e 5b01 533d 25ff 463f 89c9 41be
00000140: fd59 c83e 38a6 593e 1918 9b3e 0027 103e
00000150: ce48 673f 1319 91be 1712 453e 3bcb 2d3e
00000160: 69f1 d03e 8318 3fbe dfc8 b0be 4cb5 213f
00000170: 71ef 4bbb 1b7e 133f 839c 533c 89a4 adbe
00000180: 2ddc 2b3e 0088 0fba b0de 21bd c00a f63b
00000190: 26f4 9c3d 6888 2bbd f898 c83c b890 8cbd
000001a0: 00dc 29be 74c6 033d 772c 013e e89f e5bd
000001b0: 3242 863d 8079 d53a 788c e0bc 70de 4c3c
000001c0: 02a3 963d 80a1 20bb d0a1 433d 209a 8dbb
000001d0: f481 303d be63 f23d 50f4 b03c d85b a8bc
000001e0: dea6 7fbd 90b8 cebc 3466 453d a533 c1bd
000001f0: d467 7d3d d04a 53bd bce3 e7bd 9a1a 05be
00000200: 9ba7 4fbf 5419 be3d 1e3b 283f f0f7 683f
00000210: ba23 5c3f bff7 1c3f 9f25 27bf 0217 ae3d
00000220: 5f59 ddbe 5d9b 56bf 242f 593f 5419 0b3f
00000230: 21e1 f9be 2161 733e b0f1 c83f 2412 abbf
00000240: 1f51 db3d 37cd ba3d 1095 81be f866 8b3d
00000250: 707b 353e bcba b5be f5c2 06bf e579 46bd
00000260: 8ec0 df3e 9f00 b2be f9b5 1cbf 04a5 423f
00000270: ff7a 503e a776 f13d 48d4 173c 49d8 d8be
00000280: 9d69 33be fe9d 053e 315c b23e 34fd 123f
00000290: 4e5d f13e 3846 fc3e 5e8a 423d 698a e83f
000002a0: ccfd 043f 8ee4 01bf f2cb d33e 44cd f4bf
000002b0: fa7e 82be d3b8 e43e 8d59 883f 0e79 a1be
000002c0: 299c df3d efa3 9a3e 2dca 30be 971f 3c3e
000002d0: 678c 18bf 91de 9e3e 0c4b 6cbe 872b a63d
000002e0: 46bd 7e3c c826 323e 5578 b43e 2917 1d3f
000002f0: dfd8 0d3e 00ba 043f cf55 ca3c 244f 9e3e
00000300: 90ab dc3d 7dd3 8a3d 9873 153f b8da 993e
00000310: 4b31 933e a21f 1fbe 126b 0c3e 706e e1bf
00000320: 1db3 0cbe 4a29 4d3e 386d 4d3e d634 f43f
00000330: 64a8 843e 3501 cf3d bc4b b33e 59a0 753e
00000340: fd79 a63e 5e28 ed3d 1d05 e33e a212 003e
00000350: a9e1 333f 7de0 2dbd d9d0 753d ab9e db3d
00000360: 327e ab3e da2a 23be fd7c c3bd 64e9 a8bd
00000370: a172 a2bc 8732 e43e 59b0 d63d fd5a 4dbd
00000380: 36cc a43e b187 213c eef0 10bf 3a02 13bf
00000390: 41f5 ccbe 4c51 c33d b27f b53e 7554 6bbf
000003a0: 90a3 9fbd ad99 2a3f 71c0 1dbf 62ff 443f
000003b0: d906 f53e 47e3 7b3e 31e4 72bf 4ef9 203f
000003c0: c126 533d 5e90 aebd edaf a63e dd75 3d3e
000003d0: 0717 993e 9fee e5bd c055 0e3f 5f96 91bd
000003e0: a7ec 10be 23c6 3fbe 2fda 2ebe c44f 1d3d
000003f0: 203b e5bd 835f 893d 5b12 f1bc a3f7 1dbd
-0.100726776 -0.07240588 0.054314032 0.012239218 0.054740153 -0.077372424 0.021381155 -0.1183227
-0.11016021 -0.013646901 0.011033788 0.07874762 0.04399699 0.16734274 -0.1759029 0.012353584
0.061429076 0.06624977 0.07309915 -0.08468813 -0.028006896 -0.13422209 0.12779634 0.1358126
0.013387546 0.10849993 -0.084173195 0.17503525 -0.08314433 -0.084849104 0.066692054 0.11805253
0.09508086 0.16001603 -0.41457045 0.18676497 0.1343789 0.38728568 0.21873917 1.7829393
0.14277725 -0.40704393 0.10993783 -1.8579525 -0.053059507 0.32182887 0.09070622 0.02864706
-0.045781482 0.23893385 -0.12162516 0.28507325 -0.45546338 0.061105028 -0.20008971 -0.06057141
-0.006877434 0.32446647 -0.16942006 0.56904364 0.15291695 0.25235322 0.16988823 0.208385
-0.1557454 -0.034676753 0.4919876 0.37842736 0.31854695 -0.32598656 -0.09886826 -1.6992105
-0.15301438 0.63648343 0.5384104 2.2559981 0.388928 0.051514965 0.7773307 -0.18924536
0.39131156 0.21254814 0.30291823 0.14077377 0.90345466 -0.28339443 0.19245182 0.16972058
0.4080918 -0.18661694 -0.34528252 0.6316726 -0.003111806 0.57614297 0.012915733 -0.33914593
0.16783209 -0.00054752827 -0.039519012 0.0075086057 0.07663755 -0.041878134 0.024487004 -0.068635404
-0.1658783 0.03217168 0.12614618 -0.1121214 0.065555945 0.001628682 -0.02741073 0.012504205
0.0735531 -0.0024510324 0.04776174 -0.0043213516 0.043092683 0.118354306 0.021600872 -0.020551607
-0.062414996 -0.02523449 0.04819317 -0.094336785 0.061866596 -0.05158502 -0.11322734 -0.12998429
-0.8111512 0.09282175 0.65715206 0.9100332 0.85992014 0.6131553 -0.6529178 0.08500482
-0.43232247 -0.83830816 0.84837556 0.5433552 -0.48804572 0.2376752 1.5698757 -1.3364911
0.10708832 0.09121173 -0.25309038 0.06806749 0.17722869 -0.3549403 -0.5264123 -0.04845609
0.43701595 -0.347661 -0.6121517 0.76033044 0.2035942 0.11790209 0.00926692 -0.42352512
-0.17520757 0.1304855 0.3483596 0.5741761 0.47141498 0.49272323 0.04749524 1.816724
0.51949763 -0.5073937 0.41366535 -1.9125142 -0.254875 0.4467226 1.0652329 -0.3153767
0.10918457 0.30203196 -0.17264624 0.18371426 -0.59589237 0.3102918 -0.23075503 0.08113771
0.015548056 0.17397606 0.35248056 0.61363465 0.13852261 0.51846313 0.02469912 0.30919755
0.107749104 0.067786194 0.5837951 0.30049682 0.28748545 -0.1553941 0.13712719 -1.7611828
-0.13740201 0.20035282 0.20061195 1.9078624 0.25909722 0.10107652 0.35018718 0.23986949
0.32514945 0.11579965 0.4433984 0.12507108 0.70266205 -0.042450417 0.060013626 0.10723623
0.33494717 -0.15934315 -0.09545324 -0.08247641 -0.01983005 0.445698 0.104828544 -0.0501356
0.3218705 0.0098590115 -0.5661763 -0.5742527 -0.40030864 0.095369905 0.35448986 -0.91925746
-0.07794869 0.6664074 -0.6162177 0.76952183 0.47856787 0.24598418 -0.9487944 0.6288041
0.05155063 -0.085236296 0.32556096 0.18501993 0.2990038 -0.11227154 0.55599594 -0.07108759
-0.14152776 -0.18727927 -0.17075418 0.03840615 -0.11192918 0.067076705 -0.029427698 -0.038566243

layer1.bias f4 [20]
00000000: 5ad3 65be 5515 033f b5ed fb3e c8fe 12be
00000010: 8ad9 f03e 260a 1a3f e603 af3e d2ad 373e
00000020: 839a d83e d337 013f cf66 b73e a2ce 133f
00000030: 2b5d 59be 6aff 213f 79a5 6ebe e805 e23e
00000040: 5324 023f fd44 113f b005 fd3e 0d92 413e
-0.22443905 0.51204425 0.49204794 -0.14355004 0.4704097 0.60171735 0.34182662 0.17937401
0.42305383 0.50475806 0.35820624 0.5773717 -0.21226947 0.63280356 -0.2330531 0.4414513
0.50836676 0.5674589 0.49418402 0.1890337

layer2.weight f4 [4, 20]
00000000: 03fd fc3d 9b09 a3bf 94c8 303f d080 c0bc
00000010: 64f8 aabf 80a2 debf 069d 553f a89a 953f
00000020: d6f0 b63c 6617 583f 782f e23e 50d5 84bf
00000030: bac9 20bc 5921 02c0 b979 24be 4590 1f3f
00000040: f1e1 bbbf 01a9 843f 1278 7f3f 4497 183f
00000050: 84d0 983d 4092 c0bf 80c6 853f 58f1 7bbd
00000060: fb73 8f3f d291 4ebf 9d49 863f f3c9 1ebf
00000070: 9f5c 3c3f 4b50 c7bd 2acf d9bf f029 f6bf
00000080: 4e2a aa3d 2271 f33d db82 22bc 1194 0e3f
00000090: b7e6 8b3f f758 80bf d9ac 67bf 12a8 2abf
000000a0: b9f4 223d eeba 003f acfb eabf 487e 853d
000000b0: 644f e0bf 99da e83e 41c9 e0bf e31a d6be
000000c0: 8982 a5bf 89a3 513f 40c2 383f 3988 7f3f
000000d0: c33b 56bd 13e7 25be 96d0 b33d 2a12 b9bf
000000e0: a3e8 d8bf 3c17 643f dc61 9b3f 0036 b3be
000000f0: f3e6 13be deb8 693f 6750 61bf 88a6 133d
00000100: f372 763f 1ade 6a3f 1e4e d3bf e322 f7be
00000110: 0fe7 953e ddfb cdbf 1b6f d1bc e702 d63e
00000120: f835 c4bb 36b0 543f fb05 24be 0dbf dcbf
00000130: f9a8 463f 07df ddbf 485b b3bf 0043 25bc
0.12352946 -1.2737306 0.6905606 -0.023498923 -1.3357053 -1.7393341 0.83442724 1.1687822
0.022331636 0.84410703 0.4417684 -1.0377598 -0.00981372 -2.0332854 -0.16062059 0.6232951
-1.4678327 1.0364076 0.9979259 0.59605813 0.07461646 -1.5044632 1.0451202 -0.06150946
1.120727 -0.80691254 1.0491215 -0.620269 0.7357883 -0.097321115 -1.7016346 -1.9231548
0.0830885 0.11886813 -0.009918894 0.5569468 1.0929784 -1.002715 -0.9049812 -0.66662705
0.039784167 0.5028523 -1.8358054 0.06518227 -1.7524228 0.45479277 -1.7561418 -0.41817388
-1.2930461 0.8189016 0.721714 0.99817234 -0.052303087 -0.16201429 0.08780019 -1.4458668
-1.6945995 0.8909795 1.2139239 -0.35002136 -0.14443569 0.9129771 -0.8801331 0.03604749
0.9626915 0.9174515 -1.6508214 -0.48268804 0.29277846 -1.6092488 -0.025565675 0.4179909
-0.005987879 0.83081377 -0.16017906 -1.7245804 0.7760158 -1.7333688 -1.4012232 -0.010086775

layer2.bias f4 [4]
00000000: c2de 283b 1014 e73c ff3b 943e a024 2e3e
0.002576754 0.028207809 0.28952023 0.17006159
